server/met_fatigue_minimal.pt (torch, 53389 bytes, 15 tensors)

net.0.weight f4 [128, 3]
000000 da d3 96 be 6d b0 ce 3e 77 e8 50 be 56 6c e3 3e
       -0.29458505 0.40368977 -0.20401178 0.4441859
000010 7a 93 e9 3e 6b 23 33 be 83 d0 60 3d ab 73 d5 3e
       0.45620328 -0.1749398 0.054886352 0.4168981
000020 a1 79 f1 be 09 69 c2 3e c0 ea bf 3d 9e 8c 07 bf
       -0.47163108 0.3797076 0.09370947 -0.5294894
000030 56 28 2f be 47 41 8b 3e bd 21 95 be a5 c0 04 3e
       -0.1710523 0.2719824 -0.29127303 0.12964113
000040 03 82 48 3e 17 a0 67 be c8 db 0f bf 99 d8 b2 3e
       0.19580846 -0.22619663 -0.56194735 0.34930876
000050 e5 62 0c 3e c4 fe 87 bd d3 d0 c1 be 89 7c 2a b9
       0.137096 -0.066403896 -0.37854633 -0.00016258856
000060 1a 70 de 3e 81 5a 69 3e 12 b2 b2 be f3 b5 ad be
       0.43444902 0.22788431 -0.34901482 -0.3392788
000070 1b 1c ea be 02 80 57 be a2 87 9f be 2b e2 66 3d
       -0.45724568 -0.21044925 -0.31158167 0.056368034
000080 a2 f3 85 be 15 75 c7 be 66 8c b5 be 28 4e fb be
       -0.2616244 -0.38956514 -0.35458678 -0.49083066
000090 56 55 a8 3e 4b 56 08 3d b9 68 07 3f dd 2b 57 ba
       0.32877606 0.03328542 0.5289417 -0.0008208135
0000a0 09 25 f5 3e 6e 85 16 be a9 15 e6 3e 3f e8 2a bd
       0.47879818 -0.14699337 0.449384 -0.041725393
0000b0 d8 66 31 bd 34 ba b2 bd 7b 3d 21 be ff 1c bd 3e
       -0.04331097 -0.08726922 -0.15746109 0.36936185
0000c0 48 0e 0d 3e 7b 04 b7 3c c3 f9 65 3e 3a b1 1f be
       0.13774979 0.022341004 0.22458558 -0.1559495
0000d0 e9 45 85 bd 5c 04 dd 3d 0f 93 77 3d 4b af c6 be
       -0.06507475 0.10791847 0.06044298 -0.38805613
0000e0 9b 5b cb 3d e5 3f 83 3e db 6a 0c bf 32 c7 12 3f
       0.09929582 0.25634685 -0.5485055 0.573352
0000f0 b0 eb 0d 3f 77 f8 df 3d 62 3f f5 3e b1 d2 92 3e
       0.55437756 0.10936063 0.4789992 0.2867637
000100 75 bc 2e 3e 88 12 ac 3e 67 3b 16 3e ee 10 9e 3e
       0.17064078 0.33607888 0.14671098 0.3087229
000110 9c 4d b4 be d1 92 e7 be 9d 91 8c 3e 49 18 57 bd
       -0.3521546 -0.452292 0.27454844 -0.052513395
000120 41 1f 02 bf 42 87 00 bf b5 be f9 be ab 5f e4 3e
       -0.5082894 -0.5020639 -0.4877831 0.4460424
000130 1f e2 03 3f 82 a9 a4 3e e7 71 9e 3c 7c a7 e8 3e
       0.5151691 0.32160574 0.019341422 0.4544028
000140 3d b7 b9 be da 13 96 3e b8 87 11 3f 38 dd 31 3e
       -0.36272612 0.2931202 0.56847715 0.17369545
000150 2f 05 b5 be 84 61 13 bf 57 c8 90 3e cb 1f f6 bc
       -0.35355517 -0.5757067 0.28277847 -0.030044457
000160 29 fe 2e bd 98 47 e1 3e 47 dc e5 be 9a a3 f6 be
       -0.042722855 0.43999934 -0.4489462 -0.48171693
000170 3a 02 02 bf f3 38 35 3c d0 b9 8c be c8 44 e7 bd
       -0.5078465 0.011060941 -0.27485514 -0.11292416
000180 7b e2 d6 3c 3c 55 09 3f ee 57 5c 3e d8 d8 47 bd
       0.026231041 0.5364568 0.21517918 -0.048790783
000190 0d 9e c9 be ae e0 41 bd 5e 5c e1 bd f6 d2 05 3e
       -0.39378396 -0.047333412 -0.11003946 0.13068756
0001a0 fb 16 08 3f 9d 2a fc be 7a 55 95 3e a1 63 31 be
       0.53160065 -0.4925126 0.29166776 -0.17323162
0001b0 80 cb fc be dd 5f 04 3f f9 05 5e be d2 37 6d be
       -0.49374008 0.51708776 -0.21681966 -0.23165825
0001c0 66 80 ce 3e 28 08 59 3e 0a cb 58 be 66 82 06 3f
       0.40332335 0.21194518 -0.21171203 0.5254272
0001d0 28 da 47 be 25 9b 73 be c3 99 f2 bd 59 be d1 3e
       -0.19516814 -0.23789652 -0.11845734 0.40965536
0001e0 2b 0b 12 3f 4a 57 47 be 2d 86 87 3e c3 04 11 bf
       0.5704829 -0.19466892 0.26469555 -0.5664789
0001f0 9d a4 a3 bd 2a c4 a4 bd 6b c8 03 bf 1a d2 06 bf
       -0.07990382 -0.08045228 -0.5147769 -0.5266434
000200 e7 df b5 3d fb c3 92 3e 6e 5b ec 3d b2 11 19 be
       0.088805966 0.28665146 0.11540876 -0.14948156
000210 ad 72 84 3e 1f f2 4b be 8b 31 07 bf f2 31 24 bd
       0.2586874 -0.1991658 -0.5280997 -0.040086694
000220 91 9f ce 3e bb d9 f5 3e 22 b6 dc be 99 8e 1d bf
       0.40356115 0.48017678 -0.43107706 -0.6154571
000230 c9 ce 82 3e e8 c0 0b bf 34 d1 ca be 58 ce 70 be
       0.2554839 -0.54591227 -0.39612734 -0.23516214
000240 78 05 06 bf 92 7f 01 3f 40 24 f0 3e 0d cb 0c bf
       -0.52352095 0.5058528 0.46902657 -0.5499733
000250 95 8f 06 3f 51 23 80 3d 58 2d 00 3f 6d cc 00 3f
       0.5256284 0.06256736 0.5006919 0.5031193
000260 49 d8 bb 3e a5 2f 0e 3e a2 2a ac 3e b2 21 af 3e
       0.3668845 0.13885362 0.33626276 0.34205395
000270 d2 17 ad be 9e f9 b5 be b2 60 bd be fb bb f8 3e
       -0.33807236 -0.35542005 -0.36987835 0.48580918
000280 e5 17 a1 bd 2a a6 95 be b4 39 1f be 1d 0c 55 3e
       -0.07865886 -0.29228336 -0.15549356 0.20805402
000290 cf e9 e5 be 1c e4 8b 3e 34 39 7a 3e ac 5e 51 be
       -0.44904944 0.2732247 0.24435884 -0.2044627
0002a0 e6 c9 42 3b 33 56 90 bc 69 34 14 bd b9 36 31 3e
       0.0029722392 -0.017619228 -0.036182795 0.17306031
0002b0 00 cb 1e be 14 14 e9 be 15 f5 a2 3b 9a d1 ec 3d
       -0.15507126 -0.4552313 0.0049730637 0.11563416
0002c0 51 0b f1 3e c9 4d c3 3e 3c 48 f4 3e 27 36 74 3e
       0.47078946 0.38145283 0.4771136 0.23848782
0002d0 09 30 0f 3d bd 50 1c be 0e 84 c7 be 39 74 da be
       0.03495792 -0.15265174 -0.38967937 -0.42666796
0002e0 b9 26 fa 3e b3 76 42 3e a3 06 f2 be 1b 57 bd 3e
       0.48857668 0.18990593 -0.47270688 0.3698052
0002f0 51 4b e2 bd d6 d9 db be 35 9b cc 3e 60 f3 db 3e
       -0.11049522 -0.42939633 0.39962164 0.42959118
000300 6e bf e3 be 04 a3 d1 3c 37 4e e8 3c 2c 90 d0 be
       -0.44481987 0.025590427 0.028357608 -0.40734994
000310 3d 4f 37 3d e3 88 0f 3e 15 c9 33 3e 6a c5 03 be
       0.044753302 0.14017062 0.17557175 -0.12868276
000320 5d a3 04 bf 81 f9 c2 3e 04 8b fd 3e 12 65 1b 3e
       -0.5181177 0.3808098 0.49520123 0.15175274
000330 7d d6 04 3f 33 e1 0e bf e4 42 0c 3f 61 7f c7 3e
       0.51889783 -0.55812377 0.54789567 0.3896437
000340 b5 f3 94 be 53 68 0c 3f 79 0b 9e 3e ca 97 23 bf
       -0.29092184 0.54846686 0.30868128 -0.63903487
000350 6d a8 3b be 7c 00 04 3f ec 0d bd 3e 43 2b 5a 3e
       -0.18325968 0.5156324 0.36924684 0.21305566
000360 14 b3 e8 bd 31 7d 13 bf 96 7a ea be 31 9f f8 3e
       -0.113622814 -0.576129 -0.4579665 0.48558953
000370 c1 c1 b9 3e 02 d6 f6 be f6 f5 bb be d2 16 8b 3e
       0.36280635 -0.4821015 -0.3671109 0.27165848
000380 47 1b a7 be 65 4e 9e be 7f 6a d6 3e ae 93 b3 bd
       -0.32637998 -0.30919185 0.41878125 -0.08768402
000390 32 1f a8 3e 02 fc e6 3e 94 90 05 bf d9 25 16 3f
       0.328363 0.45114142 -0.52173734 0.586515
0003a0 13 f8 32 be 2e 80 ed 3e bd 32 ed 3e 8b 49 ac 3e
       -0.17477445 0.46386856 0.46327773 0.3364986
0003b0 90 65 bc 3e 0f 63 96 3e e9 27 59 be 67 7f ba 3d
       0.36796236 0.2937245 -0.21206631 0.09106331
0003c0 c0 ea a7 3e 09 57 3c 3e 58 93 dd 3e b4 bf c0 be
       0.32796288 0.18392576 0.43276477 -0.37646258
0003d0 59 5f c4 3e da c9 6a be d4 23 82 be 34 1e 95 3d
       0.38353994 -0.22928563 -0.2541796 0.072811514
0003e0 64 3d ba bc 54 4d 85 be b5 6e 65 3e e1 12 07 bf
       -0.022734351 -0.2603556 0.22405513 -0.5276318
0003f0 b9 ba c9 bb 25 72 eb be d0 97 b4 bd 70 83 22 bf
       -0.0061562923 -0.45985523 -0.088180184 -0.6348181

net.0.bias f4 [128]
000000 3f 28 be be 72 b9 04 3d 97 14 d5 3e f9 43 32 3e
       -0.3714008 0.032403417 0.4161727 0.17408742
000010 7e fb a8 3e f1 09 d4 3e 64 da cf 3e 7d 81 02 bf
       0.33004373 0.41413835 0.40596306 -0.50978833
000020 e0 ba fa be 5c ad f6 3c 87 a4 b0 3e 53 fd 6b 3e
       -0.489707 0.030111961 0.34500524 0.23045854
000030 8b 7a ff 3e 97 92 af 3c a4 c2 a3 be 4a ee b7 3e
       0.4989818 0.021432204 -0.31984437 0.35923988
000040 4f cd c5 3e ca 1b 02 bd d3 70 4c be 4d d0 fe be
       0.386332 -0.031764783 -0.19964914 -0.49768296
000050 84 d6 95 be 3c 11 fd 3d aa e8 9b be 80 56 b0 be
       -0.29265225 0.12356803 -0.30450946 -0.34440994
000060 b4 63 4e 3e 6d 23 bb 3e 19 51 a8 3e cb 6d ed 3c
       0.20155221 0.36550465 0.32874373 0.028983017
000070 06 92 8a 3e af e7 03 be ed eb 60 3d 6a 44 08 3f
       0.27064532 -0.12881349 0.054912496 0.5322939
000080 06 e3 04 bf d4 da 92 be 6b 4c 9c 3e e7 e8 61 3e
       -0.5190891 -0.28682578 0.30527052 0.22061501
000090 a6 a1 d0 3e 35 48 10 3f be 32 1b 3e 1d 9f b8 be
       0.40748328 0.5636018 0.15156075 -0.36058894
0000a0 39 c6 01 3e 28 ec 1a 3d 07 07 64 3e e6 ae b6 3e
       0.12673272 0.037822872 0.22268306 0.35680312
0000b0 c7 07 42 3e 7e 68 f1 3c 09 0e d9 3d 07 bf 6c be
       0.1894828 0.029468771 0.1059838 -0.23119746
0000c0 8d 1d ca 3e 49 d7 88 3e 5e e8 6c be e3 d5 b5 3e
       0.3947567 0.2672675 -0.23135516 0.35514745
0000d0 ff 18 96 be 25 46 aa 3e 03 8f d7 3e ae bb 1a 3f
       -0.29315946 0.3325664 0.42101297 0.60442626
0000e0 13 d9 f5 bd dc 50 d4 be c5 37 5e 3c 20 96 be be
       -0.12004294 -0.4146794 0.013563101 -0.3722391
0000f0 a2 b2 06 3f 74 f0 02 3e 9f 57 9a 3d 04 6a 15 bd
       0.5261632 0.12787038 0.07536244 -0.036478058
000100 ad 65 07 bf f8 5c e4 3c b7 95 90 bd 5a 52 5e 3e
       -0.5288952 0.027876362 -0.07059806 0.21711102
000110 8c 66 0a bd 35 70 59 be c2 36 03 bf 1b 11 8e be
       -0.033789203 -0.2123421 -0.5125543 -0.27747425
000120 2f c7 82 be 5d 50 96 3e fe 06 f6 3e 45 ba 36 3e
       -0.2554259 0.29358187 0.4805221 0.17844494
000130 e4 7f 0a bf 43 e0 7a be 73 e6 e0 3e b3 7d 4a 3d
       -0.54101396 -0.24499612 0.4392582 0.049436282
000140 5d 14 a2 3e 23 3b 88 3e d5 37 79 3d e8 2e c4 3e
       0.3165616 0.26607618 0.06084426 0.38317037
000150 81 f0 f6 3e 00 af 9f be ce 39 85 bd 2d f4 0c 3f
       0.48230365 -0.31188202 -0.06505166 0.5506008
000160 ed c1 ce be 5b c2 10 3f 7f a7 72 be c6 7b eb 3d
       -0.4038233 0.5654656 -0.23696707 0.11498217
000170 25 4d fb 3d ef 64 03 bf 0a 97 5b 3e a9 5e 15 bf
       0.122705735 -0.5132589 0.21444336 -0.58347565
000180 32 67 08 be 76 d3 c6 3e 4e 06 da be c4 0b 0c bf
       -0.13320616 0.38833207 -0.42582935 -0.5470545
000190 78 e7 d5 3e 3e 1d 1e be 5c 66 05 3f b7 a9 4a be
       0.4177816 -0.15440843 0.52109313 -0.19791304
0001a0 7b 86 d5 be c0 83 e9 bb 0c 58 89 3e 5a 4a a2 be
       -0.41704163 -0.0071263015 0.26824987 -0.3169735
0001b0 88 43 b4 3e 8b 40 d5 3d 25 62 1d be 09 c9 50 bc
       0.35207772 0.10412701 -0.1536947 -0.012743243
0001c0 91 45 da be 1f 46 97 be f7 12 cc be 70 c9 40 3c
       -0.426312 -0.29545686 -0.3985822 0.011766776
0001d0 f8 9b 04 3f 18 bc c7 3d b7 89 dd 3e 77 77 fc 3e
       0.5180049 0.09752673 0.4326913 0.49309894
0001e0 ae a4 b4 be ba 70 39 3b 58 4a dd 3e 1f 68 d5 3e
       -0.3528189 0.002829595 0.43220782 0.41681
0001f0 f6 12 bd 3d 74 bf 75 bd e1 f6 c3 bd 81 b5 b0 3d
       0.09232132 -0.059997037 -0.09568573 0.08628369

net.2.weight f4 [128]
000000 64 de 7b 3f 74 bc 7b 3f c5 cb 7f 3f 59 04 75 3f
       0.98386216 0.9833443 0.999203 0.9570976
000010 0b 88 76 3f 6a 58 80 3f da 52 80 3f 45 8a 86 3f
       0.96301335 1.0026982 1.0025284 1.0510947
000020 8d c8 78 3f 48 1f 87 3f 98 34 76 3f 0e 4f 81 3f
       0.97181016 1.0556421 0.96174 1.010225
000030 cd 2e 76 3f 3e 4b 7c 3f 90 ad 78 3f dd 9f 81 3f
       0.9616516 0.9855231 0.97139835 1.0126911
000040 d7 96 76 3f 3b 78 84 3f 11 76 83 3f 54 a5 79 3f
       0.96323913 1.0349191 1.0270406 0.97517896
000050 46 15 7f 3f cd 2a 82 3f d9 0a 80 3f 9d f9 78 3f
       0.99641836 1.0169312 1.000331 0.9725588
000060 76 ef 80 3f 08 23 81 3f eb ed 7b 3f 36 4e 72 3f
       1.0073078 1.0088816 0.9840991 0.9465059
000070 32 94 82 3f 09 75 79 3f e5 33 81 3f c6 0d 79 3f
       1.0201476 0.97444206 1.0093962 0.9728664
000080 a5 5b 75 3f 84 d3 87 3f 94 6b 7e 3f 17 34 7d 3f
       0.95842963 1.0611424 0.993829 0.9890761
000090 38 ef 75 3f ae 02 74 3f 53 0d 7d 3f b7 e8 81 3f
       0.96068144 0.9531659 0.98848456 1.0149144
0000a0 8d 23 7e 3f 84 ab 81 3f 8d 68 85 3f be ab 80 3f
       0.99272996 1.0130467 1.0422531 1.0052412
0000b0 15 88 79 3f 75 92 82 3f 7d 6a 80 3f 8e cc 84 3f
       0.9747327 1.0200945 1.0032498 1.0374925
0000c0 d5 1e 82 3f 36 ba 77 3f 05 68 7b 3f 08 b3 7e 3f
       1.0165659 0.9676851 0.98205596 0.9949193
0000d0 45 ca 7c 3f 35 5a 79 3f 91 8f 71 3f 09 0a 82 3f
       0.9874614 0.9740327 0.9435969 1.0159312
0000e0 b6 32 7c 3f c4 8e 74 3f 83 b4 7b 3f db fe 7b 3f
       0.9851488 0.95530343 0.98322314 0.98435754
0000f0 75 33 81 3f 26 e1 80 3f c2 2b 78 3f d1 f3 79 3f
       1.0093828 1.006871 0.9694177 0.9763766
000100 20 9d 87 3f 70 5c 79 3f cb a3 7b 3f 92 8a 7c 3f
       1.0594826 0.97406673 0.98296803 0.9864894
000110 d6 7d 7a 3f c2 c3 79 3f de f5 80 3f c6 46 83 3f
       0.9784826 0.9756433 1.0075033 1.0255973
000120 8d 9c 7c 3f 77 d6 82 3f c7 f5 6f 3f 34 f5 71 3f
       0.9867638 1.02217 0.937344 0.94514775
000130 2c 9b 80 3f 89 1a 7f 3f 8b 37 7d 3f 27 07 80 3f
       1.0047355 0.99649864 0.98912877 1.0002183
000140 f3 78 7a 3f 05 c8 7e 3f 47 c3 79 3f 23 48 7a 3f
       0.97840804 0.99523956 0.97563595 0.9776632
000150 00 66 81 3f 10 9b 8a 3f 15 8e ea 3e 66 28 7c 3f
       1.0109253 1.0828571 0.45811525 0.98499143
000160 b4 d0 80 3f e8 40 79 3f 2d 85 85 3f b5 c1 81 3f
       1.0063691 0.97364664 1.0431267 1.013724
000170 4c 07 73 3f 68 49 8a 3f f5 77 7f 3f 3f b2 7a 3f
       0.9493301 1.0803652 0.99792415 0.9792823
000180 9c 10 86 3f 1e fa 7a 3f f3 e6 7a 3f 33 9c 82 3f
       1.0473819 0.980379 0.9800865 1.0203918
000190 e3 90 80 3f 26 6a 82 3f 70 27 80 3f eb a1 7a 3f
       1.0044216 1.0188644 1.0012035 0.9790332
0001a0 98 d7 81 3f 88 a6 77 3f 85 06 72 3f ef 66 8f 3f
       1.0143919 0.9673848 0.945412 1.1203288
0001b0 a2 8a 76 3f b0 73 76 3f 67 6a 7b 3f f3 5d 7e 3f
       0.96305287 0.96270275 0.9820923 0.99362105
0001c0 eb bd 78 3f cc 3b 7e 3f 25 0e 78 3f 7b ab 7f 3f
       0.9716479 0.9930999 0.9689658 0.99871033
0001d0 75 39 7a 3f 5c 19 79 3f 67 96 80 3f 80 c9 7a 3f
       0.9774392 0.9730432 1.0045899 0.97963715
0001e0 e2 e4 8c 3f 56 22 85 3f 97 56 82 3f d3 65 79 3f
       1.100735 1.0401103 1.0182675 0.97420996
0001f0 3c fb 7a 3f 3d 1a 80 3f 82 39 76 3f b7 24 80 3f
       0.98039603 1.0008007 0.961815 1.0011204

net.2.bias f4 [128]
000000 37 11 0a bd f1 2c 00 3d 91 b8 85 3b c3 75 82 3d
       -0.033707824 0.03129286 0.00408084 0.063701175
000010 06 b8 62 3d cb 8c 84 3d 4e 84 2f bb 3c 36 af bd
       0.05535128 0.06472167 -0.002678174 -0.08555266
000020 6e 2e fd 3c 3a 54 94 bd 2d db 55 bb 7b bc bb 37
       0.030905928 -0.072426274 -0.003263186 2.2379905e-05
000030 19 55 cd 3c 05 c0 15 bd 52 86 17 3d 91 be a5 bd
       0.025064992 -0.036560077 0.036993332 -0.08092988
000040 18 40 e7 bb 97 ef 17 bd fd 76 ed bd 5e 26 11 3b
       -0.007057201 -0.037093725 -0.11594961 0.0022148113
000050 16 43 2a bd f3 7e ba bc bb 12 86 3c b1 6e 5d bd
       -0.041567884 -0.022765612 0.016366353 -0.05406064
000060 a0 35 c6 bc 36 d6 61 3d 7c 39 99 bc 5c ef bd 3d
       -0.024195492 0.055135928 -0.018704168 0.0927417
000070 03 d6 ba bd b7 9a 6d bd 76 de c0 bd ff b6 af 3c
       -0.09122851 -0.058008876 -0.09417431 0.021449564
000080 fe 83 42 bd 87 93 a3 bd d3 fc de bc 04 0f 44 bd
       -0.04748916 -0.07987123 -0.027220165 -0.047865883
000090 c3 98 1c bd f0 b0 40 3d 42 71 e4 bb 49 9e b3 bd
       -0.038231622 0.04704374 -0.006971509 -0.08770425
0000a0 00 52 02 3c e4 de c6 bd fe ff c8 bd 5e 99 1c 3c
       0.007954121 -0.09710482 -0.09814452 0.00955805
0000b0 d2 e8 01 bd 27 4e cb bc fc 3e d4 bc 86 81 4c bd
       -0.031716175 -0.02481754 -0.02590894 -0.04992821
0000c0 55 f8 61 bd d5 70 a5 bc f5 3d 01 bd a4 56 0d bd
       -0.05516847 -0.020195404 -0.031553227 -0.034506455
0000d0 a9 21 dd bd c6 d1 56 bd b3 58 45 bc 20 a7 4f 3d
       -0.10797436 -0.05244615 -0.012045073 0.050696492
0000e0 e7 bb 94 bd 5a c3 d6 3c 74 37 5a bd ee 26 ca 3c
       -0.07262402 0.026216198 -0.05327554 0.024676766
0000f0 84 3c 84 bc a1 91 4b bd 42 2d 99 bc 25 a2 4d bc
       -0.016142137 -0.04969943 -0.018698338 -0.012550865
000100 aa 4a af bd 2c 73 9c bd a6 9d cd 3b 49 93 16 3d
       -0.08559163 -0.07639155 0.0062748967 0.036761556
000110 2c a4 68 bd ed 4b 04 bd 30 89 c0 bb e1 bb bf bc
       -0.05679719 -0.03229897 -0.005875729 -0.023405017
000120 8e 34 3b bd 97 db f8 3c 89 c1 88 3d c3 c2 3e bd
       -0.045704417 0.030378146 0.06677539 -0.046572458
000130 3c bf 07 bd a8 17 06 3d 14 1b 3e 3d cf 16 00 3d
       -0.03314136 0.032737404 0.046412542 0.031271752
000140 12 ed 52 bd 99 c0 c1 bb 01 c6 b0 bd 40 f9 68 bc
       -0.05149562 -0.005912852 -0.08631516 -0.014219582
000150 32 15 a0 bd e6 e7 ce bd 81 43 ec 3d 5c 4c 77 3d
       -0.07816543 -0.10102825 0.11536313 0.060375556
000160 c5 09 a3 bd 7e 61 f5 3c d4 0f b6 bd 21 03 0e 3c
       -0.07960848 0.029953714 -0.08889738 0.008667738
000170 3d 1b 95 3d 79 47 f4 bd d2 97 86 bd 6a 8f 5a bd
       0.07280586 -0.11927695 -0.06571926 -0.053359427
000180 aa 8f a0 bd 44 45 19 ba d1 e7 81 bc 9b 8e b2 bd
       -0.07839902 -0.0005846808 -0.015857609 -0.08718606
000190 fe 4d d6 bc 8a 19 b1 bc 58 21 36 3d ee 9a 05 bd
       -0.026160236 -0.021618623 0.044465393 -0.032618456
0001a0 3a 71 1e bd b0 74 c8 3c 24 a5 cc 3c 13 e7 f4 bd
       -0.0386822 0.024469703 0.024981089 -0.119581364
0001b0 35 77 57 bd 3f 57 10 bd 50 99 0b bd 30 b0 0b bd
       -0.05260392 -0.035239454 -0.034081757 -0.034103572
0001c0 6f 7a 4d bd b0 97 be bc 48 8f a0 3c f0 c7 b4 3d
       -0.05016559 -0.02326569 0.019599572 0.088271976
0001d0 57 aa 17 3d 62 91 2e bd 45 ee 77 3d 3c 37 55 3d
       0.037027683 -0.042619117 0.060529966 0.05205463
0001e0 50 92 3b bd c7 d2 cf bd c0 90 50 3d 91 d0 c2 3b
       -0.04579383 -0.101476245 0.050919294 0.005945273
0001f0 e6 d6 55 3d 78 ac ac bb 47 f0 5c 3d 98 a0 90 bc
       0.052206896 -0.0052695833 0.053940084 -0.017654702

net.2.running_mean f4 [128]
000000 f6 bb aa 3d c2 b4 8c 3e cc b4 03 3f b5 52 bb 3e
       0.08336632 0.27481657 0.5144775 0.36586538
000010 6a dd c6 3e 4e f4 d9 3e 6d a0 08 3f 32 b4 19 3c
       0.388408 0.42569202 0.5336979 0.009381341
000020 85 c9 91 3d 83 09 8a 3e 89 aa cb 3e 47 6f dc 3e
       0.07118515 0.26960382 0.39778545 0.43053648
000030 14 d6 10 3f 1b 60 64 3e 1f 50 8b 3d 6f d9 cf 3e
       0.5657666 0.22302286 0.06802391 0.40595576
000040 98 c4 c6 3e 7a 7e 8d 3d 6d a4 ba 3d 30 56 15 3e
       0.38821864 0.06908889 0.09113393 0.14583659
000050 84 cc 2c 3e 3d 37 81 3e e7 f5 a8 3d b4 6c b7 3d
       0.16874892 0.25237456 0.08250027 0.0895628
000060 ad fc f0 3e a5 41 01 3f a1 8c de 3e bb 28 8f 3e
       0.47067776 0.5049079 0.43466666 0.27960762
000070 f0 27 ed 3e 91 eb 07 3e 9a f7 bf 3e b8 ef 09 3f
       0.46319532 0.13273455 0.37493593 0.53881407
000080 e1 8d 71 3d 3a 39 76 3d bf cf d5 3e 92 25 c1 3e
       0.058973197 0.06011317 0.4176006 0.37723976
000090 ae 0d 0e 3f f1 5f 18 3f 9f 8e ab 3e 2a c0 8d 3d
       0.55489624 0.59521395 0.3350725 0.06921418
0000a0 cf 0b ab 3e bc 1e 8b 3e f2 dc de 3e 8d ad c0 3e
       0.33407447 0.27171886 0.43527943 0.3763241
0000b0 1b d1 bc 3e d7 ad 8a 3e 93 ec c6 3e 1c d4 45 3e
       0.36878285 0.27085754 0.38852367 0.19319195
0000c0 af cb 16 3f 2b c1 f0 3e 2a 9b 55 3e 39 10 d6 3e
       0.58904546 0.47022375 0.20859972 0.41809252
0000d0 71 f8 07 3e 7d 9d dd 3e 0c c5 f8 3e d0 0b 1c 3f
       0.13278367 0.43284217 0.48587835 0.60955524
0000e0 04 00 00 00 7b 7a 84 3d 2f 2a 5c 3e 90 d8 e6 3d
       6e-45 0.06468674 0.21500467 0.11271775
0000f0 9b 2b 0c 3f 51 a0 b2 3e 61 df 96 3e 03 ab 90 3e
       0.54754037 0.34887937 0.294673 0.28255472
000100 7f 4b a5 3c 41 de 4f 3e 9a ce 56 3e 12 1c be 3e
       0.0201776 0.20299627 0.2097725 0.3713079
000110 f8 3c ba 3e f3 c9 4c 3e 5a 75 e7 3d 35 fb 14 3e
       0.3637464 0.19998913 0.1130168 0.14548953
000120 e0 13 4d 3e 6d 4f f3 3e e1 f2 0b 3f 2a 42 a4 3e
       0.20027113 0.47521535 0.5466748 0.3208173
000130 43 d4 e0 3d 58 e0 4b 3e 20 27 08 3f 1f 0c 37 3e
       0.10977986 0.19909799 0.531847 0.17875718
000140 e2 c9 d3 3e 06 29 cb 3e ee fb 17 3e 89 d6 fd 3e
       0.41364962 0.39679736 0.14842197 0.4957774
000150 ba 64 06 3f 95 c2 25 3e 00 00 00 00 cd dc 1e 3f
       0.52497447 0.16187508 0.0 0.62055665
000160 b0 dc e7 3c 14 01 14 3f 32 40 4e 3e 97 85 82 3e
       0.028303474 0.57814145 0.20141676 0.25492546
000170 ec 0a a5 3e d1 3e 09 3c 81 b9 bc 3e 36 30 a0 3d
       0.32234895 0.008376793 0.36860278 0.078216955
000180 f9 bb 8b 3d 12 31 e0 3e b2 3c e2 3d 08 8a dc 3d
       0.06822962 0.43787438 0.11046733 0.10768515
000190 6d 82 11 3f 1e fa e9 3d b2 43 04 3f db f5 89 3d
       0.5683964 0.11424659 0.51665795 0.06736346
0001a0 96 b6 cd 3c 47 30 57 3e e9 ee cb 3e 1b 71 a3 3b
       0.025111478 0.2101451 0.3983071 0.0049878485
0001b0 9f cd de 3e 46 75 a7 3e fc a0 8a 3e ed b5 92 3e
       0.4351625 0.3270666 0.27075946 0.28654423
0001c0 d6 d6 a6 3d 02 18 12 3e 37 1b aa 3d 78 ab a7 3e
       0.081464455 0.14266971 0.08305972 0.32748008
0001d0 c1 3c 1a 3f 3c df 82 3e 7d 9d 04 3f e0 65 0a 3f
       0.60248953 0.2556094 0.5180281 0.540617
0001e0 9c 26 11 3e fa 9c 14 3e 2a 5a f0 3e 75 de 05 3f
       0.14174885 0.14513007 0.4694379 0.5229257
0001f0 11 02 b0 3e 32 0e 42 3d 7c a5 3a 3e f7 33 49 3e
       0.34376577 0.04737682 0.1822719 0.1964873

net.2.running_var f4 [128]
000000 1a b5 08 3d b8 15 1a 3e d8 6d 80 3e d2 b2 4a 3e
       0.033375837 0.15047348 0.25083804 0.19794777
000010 ef 81 02 3e 30 16 ba 3d 5b 29 8e 3e 97 15 8c 3a
       0.12744878 0.09086263 0.27765927 0.0010687587
000020 4e 88 02 3d 31 1a 05 3e 04 21 f2 3d 9f 9e 7d 3e
       0.03186827 0.12998272 0.118227035 0.2476754
000030 66 a0 85 3e 14 2c ae 3d d3 42 8d 3c dd d7 fc 3d
       0.26098937 0.08504501 0.017243778 0.1234586
000040 2f 7b 80 3d bd 9d 34 3c 18 a6 bc 3c e9 e7 c1 3d
       0.062734954 0.011023936 0.023028418 0.094680615
000050 ef 89 c7 3d bc ca c2 3d 42 ba 01 3d 82 1d 09 3d
       0.097431056 0.09511325 0.03167177 0.033475406
000060 c8 3a a7 3e d2 0f 99 3e 0d 8a 4a 3e fb e5 17 3e
       0.32662034 0.29894882 0.19779225 0.14833824
000070 93 1e 88 3e f5 9d 1e 3d 60 33 81 3e ec 60 b5 3d
       0.26585826 0.03872486 0.2523451 0.08856377
000080 3b 55 a3 3c 41 f2 4c 3c d0 15 3a 3e a3 47 37 3e
       0.019938102 0.01250893 0.18172383 0.17898421
000090 97 4b a7 3e 84 59 5f 3e a8 3d 23 3e f9 cf be 3c
       0.32674858 0.21811491 0.15941489 0.023292528
0000a0 4d 10 32 3e ab 5a eb 3d 45 4c 82 3e 14 8a bd 3d
       0.17389031 0.11491903 0.25448814 0.09254852
0000b0 45 aa 3c 3e 53 e5 10 3e 59 5a 7c 3e f2 49 de 3d
       0.18424328 0.1414998 0.2464384 0.10853948
0000c0 74 66 d3 3e f6 21 94 3e 4d a7 0b 3e 9e 1b 24 3e
       0.41289103 0.2893216 0.13638039 0.1602616
0000d0 8b a2 81 3d 9f d9 4a 3e cb f9 42 3e 2c 2f 20 3e
       0.06329831 0.19809578 0.19040601 0.15642995
0000e0 04 00 00 00 01 f9 ad 3c f8 a5 9b 3d 5d a1 6d 3d
       6e-45 0.021236898 0.076000154 0.058015216
0000f0 1b 76 23 3e f0 6a 48 3e 97 02 16 3e 5d 86 31 3e
       0.15963022 0.19572043 0.14649425 0.17336412
000100 4f 83 4b 3b 3e dc 86 3d c3 0a b6 3d 4b 83 43 3e
       0.0031053608 0.065849766 0.088887714 0.19093053
000110 dd e4 8e 3e 63 1b f2 3d 46 09 60 3d 7a a2 9d 3d
       0.27908984 0.1182163 0.054696344 0.076970056
000120 73 90 e9 3d 3f 43 99 3e 31 bd 66 3e a2 f9 0b 3e
       0.114045046 0.29934117 0.22533108 0.13669446
000130 8b 21 85 3d 83 f0 f7 3d 92 43 8c 3e b4 09 5d 3d
       0.065005384 0.12106421 0.27395302 0.05396433
000140 81 8f 3a 3e 92 e1 3e 3e ea 7d f5 3c 6a 9a 79 3e
       0.18218805 0.18640736 0.029967267 0.2437531
000150 b3 61 37 3e 07 33 9d 3d 04 00 00 00 d0 6a a5 3e
       0.17908363 0.07675748 6e-45 0.32308054
000160 9f 6e dc 3b 04 3a 38 3e b4 bd f5 3d 26 da b5 3d
       0.0067270542 0.17990881 0.119990736 0.08879499
000170 b0 0c 2c 3e f7 3e 44 3a 3f 61 34 3e 3a 94 24 3d
       0.16801715 0.0007486189 0.17615221 0.040180422
000180 b6 f5 62 3c 8e b2 25 3e 6a 5e 65 3d f9 77 60 3d
       0.013852527 0.16181394 0.055998243 0.054801915
000190 a9 fb a3 3e 13 db 27 3d b0 89 61 3d 67 52 97 3c
       0.3202794 0.04098041 0.05506295 0.01847191
0001a0 d1 cc bf 3b 14 88 a8 3d 28 28 36 3e c6 b2 93 39
       0.0058532734 0.0822908 0.17788756 0.00028171221
0001b0 50 17 2d 3e e7 5d 21 3e da 17 3a 3e 52 0d 29 3e
       0.16903424 0.15758477 0.18173161 0.16508988
0001c0 dc 57 0d 3d c2 22 a1 3d 3e 7d 0f 3d 98 a4 63 3e
       0.034507617 0.07867958 0.03503155 0.22230756
0001d0 6b d7 a6 3e ef 97 d1 3d 1f dc 81 3e 2c 26 6f 3e
       0.32586226 0.10234057 0.25363252 0.23354405
0001e0 f2 23 82 3d ac d9 1b 3d f3 64 20 3e 47 3a 86 3e
       0.06354512 0.038049385 0.15663509 0.26216337
0001f0 bb 98 56 3e 27 51 df 3b b0 75 ad 3d 33 c1 6f 3d
       0.209567 0.006815094 0.08469713 0.05853386

net.4.weight f4 [64, 128]
000000 75 5f 9b 3d b9 ce 56 3d 96 ad de 3c d5 ec 46 3d
       0.07586566 0.05244324 0.027182382 0.048565704
000010 7f 82 32 bd 64 02 78 bc 1e a3 cc 3c 96 fa fa 3d
       -0.043581482 -0.015137289 0.024980124 0.12254827
000020 8b 81 3c bd b5 33 11 3d c9 74 40 3d b5 8c b0 3d
       -0.04602198 0.035449702 0.046986375 0.08620588
000030 a8 ff a5 3c 89 c2 13 3d 81 81 b4 3b e5 92 1d bc
       0.020263508 0.036074195 0.005508602 -0.009617542
000040 4b 74 55 bd a8 9b ac bc d4 3e c2 3d 69 8d aa bb
       -0.05211286 -0.021070316 0.0948464 -0.0052048457
000050 ac 77 5b 3d a2 4f da 3c a7 9b 20 bd 63 f7 4e bd
       0.053580925 0.0266493 -0.03921094 -0.050528895
000060 ba 3c 1a 3d 6d b7 c8 bb 0d 0e 40 3d 6d 1e bd bc
       0.03765557 -0.0061253817 0.0468884 -0.023085797
000070 90 8f ed bc af 61 b3 bc 67 c6 5a bd 55 7f cc 3d
       -0.02899912 -0.021897165 -0.053411867 0.09985224
000080 d0 0d 85 bd c6 27 1d 3d a0 8e cd 3c b5 d5 41 bd
       -0.06496775 0.03836801 0.025092423 -0.047322948
000090 f1 c2 72 3d 0c 10 de 3b bc 32 8e 3d 12 39 8c 3d
       0.05926794 0.0067768153 0.069432706 0.06846823
0000a0 ef 9c f1 3c c6 f2 c8 bc 7f 30 dd 3d d5 0c 91 bc
       0.029493777 -0.024529826 0.108002655 -0.017706314
0000b0 de 38 67 bd 3a 96 bc bd df a8 b8 3d 12 91 99 3c
       -0.056450717 -0.09208341 0.090165846 0.018745933
0000c0 ab 11 b2 3d 94 5c 80 bc 13 7e 85 3d 0c 92 74 bd
       0.08694776 -0.015669145 0.065181874 -0.059709594
0000d0 bf 12 be 3d cc da 41 bd fc 7b 98 3d 7e 24 71 bc
       0.09280919 -0.0473278 0.07445523 -0.014718173
0000e0 66 cb a5 3c d6 84 15 3d 8e 8b b3 bd fe 0f 3e 3c
       0.02023859 0.036503635 -0.08766852 0.0116004925
0000f0 5a db ac 3d 61 b1 c3 3d cc 2d 7c bc 10 74 03 3c
       0.084402755 0.09555317 -0.015391778 0.008023277
000100 cf e5 40 3d 41 14 6b bd 12 28 47 bd e9 db 7c bd
       0.047094163 -0.057392363 -0.0486222 -0.06173316
000110 1c 6c e9 bc b4 3e 47 bd 8d 75 b5 ba c7 eb c1 bc
       -0.028493933 -0.048643783 -0.0013844237 -0.023671998
000120 da d1 c0 3d 35 fe fe bc 10 7c fe 3c 4b a8 6b bb
       0.09415026 -0.031127075 0.031065017 -0.0035958465
000130 c1 cf 4d bd 4d b5 85 3d e5 19 79 bc 69 3a f2 bc
       -0.050246958 0.06528721 -0.015203928 -0.029568868
000140 6d 24 a2 3b b9 cf a1 39 27 39 b9 3d 0c d9 34 bd
       0.00494819 0.00030863078 0.09044104 -0.044152305
000150 76 28 38 3d 14 60 40 3c bb 83 14 3d 8a b6 30 3d
       0.04496046 0.011741657 0.03625844 0.043142833
000160 5c e0 70 3d 33 a5 9c bd 99 a8 5f 3c 41 87 88 bd
       0.058807716 -0.07648697 0.013651037 -0.06666423
000170 c8 0b d7 3c 85 52 c5 3d 81 55 7d 3d 9e 3e b3 3d
       0.026250735 0.0963488 0.06184912 0.08752178
000180 c5 95 8a 3d ce e3 69 bd 34 ad 1d bd 77 1d 72 bc
       0.067668475 -0.057102017 -0.038495257 -0.014777533
000190 f4 8e 71 bd e6 da 9a 3d a8 72 32 3d 4d c2 bf bc
       -0.05897422 0.07561283 0.043566376 -0.02340808
0001a0 4a d7 93 bd ee d2 30 bd 61 a6 ae ba 1e e1 22 3e
       -0.072187975 -0.04316991 -0.0013324731 0.15906188
0001b0 eb 11 ec bc df 06 ef 3c 15 e3 76 bd 82 db 47 bc
       -0.028817138 0.029178081 -0.060275156 -0.012198331
0001c0 db ac 35 3d 41 45 18 bd a6 88 db ba 6d 47 4b bd
       0.0443543 -0.03717542 -0.0016749098 -0.049628664
0001d0 59 5b a4 bd 2b 26 b5 3d e7 22 98 bd e8 f1 bb 3c
       -0.08025236 0.088451706 -0.07428532 0.022942498
0001e0 0b e8 f0 3d ce 8d dc bc 56 40 8e bd ce 9c 24 3d
       0.11763009 -0.026923086 -0.06945865 0.040188603
0001f0 7d 0e 05 3d f0 7a 32 3d 40 ca b2 bc 92 a9 95 bd
       0.03248452 0.043574274 -0.021824956 -0.073077336
000200 a5 1a 3b 3b 89 2a 91 3c ac 56 4d 3a 84 f3 63 3d
       0.0028549817 0.017720478 0.00078330445 0.055652156
000210 d9 4f 0b 3d f1 a5 11 bc 20 b9 60 3d ac 81 bd bd
       0.034011696 -0.008889661 0.05486405 -0.092532486
000220 ab 5a 21 bd 15 7a 24 bd 94 55 1f bc 6e f8 bd bc
       -0.03939311 -0.04015549 -0.009724993 -0.02318975
000230 5a 07 cb 3c 19 9e af bc d2 ac 31 3d ca 52 06 3d
       0.024783779 -0.021437692 0.043377705 0.032793798
000240 4f b7 18 bd 65 f1 42 bd de 8e 36 3d d5 88 16 3d
       -0.03728419 -0.047593493 0.044569843 0.036751587
000250 08 30 6c 3d 7d 6b 2a 3d 9b 32 35 bd 1e 32 47 bd
       0.057662994 0.041606415 -0.044237714 -0.04863178
000260 39 b6 0e 3d a9 ca 98 3d 9b 9b 8b bd 9d ac 7f 3d
       0.03484175 0.07460529 -0.06816789 0.062420476
000270 58 91 c3 bd ba e9 fd bc 62 7b b1 bd 51 41 3d 3d
       -0.095492065 -0.030995239 -0.086661115 0.04620487
000280 64 dc 66 bd 36 a6 94 bd 54 4c 01 bd 53 57 c8 3c
       -0.056362525 -0.07258265 -0.031566933 0.024455702
000290 b5 1b 89 3c 93 ad 4f bd 23 ca 56 3c 8c ee 99 bd
       0.016736845 -0.050702643 0.013109717 -0.07516202
0002a0 3e d1 27 ba 3d 83 74 bd 9f 0c 17 be 17 d5 55 3d
       -0.0006401724 -0.05969547 -0.14750908 0.05220517
0002b0 49 9f 80 bd 2b 78 5f 3c 0b 5e 7f ba ff f3 f4 bd
       -0.06280381 0.01363949 -0.00097414915 -0.11960601
0002c0 8a be 0b 3d ca e2 1a 3c 7c 39 b1 3c f8 a9 bd bc
       0.03411726 0.009453485 0.021633856 -0.023152336
0002d0 59 fa a4 bb 40 e3 d6 bd 41 d4 5e bd e4 4b 43 3d
       -0.0050347266 -0.10492563 -0.05440164 0.047679797
0002e0 1b 4e 05 be 33 42 96 bc dc 4c 10 3c e1 ff 87 bd
       -0.13018076 -0.018342113 0.008807387 -0.06640602
0002f0 4f 54 87 3d 6d b3 87 bd 2a 41 9d 3d 40 2a 8a 3d
       0.066078775 -0.066260196 0.07678445 0.0674634
000300 df 15 56 38 b1 d2 2c 3d c5 7b 73 bd 62 15 90 3d
       5.1041945e-05 0.04219312 -0.059444208 0.070353284
000310 76 ee 17 bd 1f 2a 59 3d e4 5c 2f 3d 7e 41 05 bc
       -0.03709265 0.053018685 0.042813197 -0.00813329
000320 77 3e cb bd 42 82 3e 3c 78 b3 56 3c c0 d7 3b bd
       -0.099240236 0.011627736 0.013104312 -0.045860052
000330 4a a8 a3 bd 8b b5 41 bd 67 fc 2b 3d 03 ea f3 bc
       -0.07991083 -0.047292273 0.041988757 -0.029774671
000340 e2 de f7 ba d4 0c 15 3c a1 77 26 3c 52 63 b4 bc
       -0.0018911029 0.009097297 0.010160358 -0.022020016
000350 0c db a5 bd 5c 32 ce bc 41 e7 0f 3e 20 bc 28 bc
       -0.080984205 -0.025170498 0.1405306 -0.010298759
000360 e9 6d 08 be 61 53 2d 3d a7 7b e6 bd ea 80 00 bd
       -0.13323177 0.042315844 -0.112540536 -0.031372942
000370 07 96 2f 3d 03 8f 1f bd 18 e4 d4 3c 95 11 06 bc
       0.042867687 -0.038954746 0.02598767 -0.008182903
000380 13 d0 df bc cd e9 46 3d c0 65 24 bd df 5d a4 3b
       -0.027320897 0.048562814 -0.0401361 0.005016073
000390 18 18 8d bd e3 fa 90 3c 7a d4 0f bc f9 89 9c 3d
       -0.06889361 0.017697757 -0.008778686 0.07643504
0003a0 56 0a 5f bd 84 7c 05 bd 04 00 de 3c 2f c0 d5 bd
       -0.054453216 -0.03258945 0.027099617 -0.10437047
0003b0 6d 29 6b 3c f5 68 be bc 29 1d a6 bd c3 8e 55 3d
       0.014353138 -0.023243407 -0.081110306 0.0521381
0003c0 3a 93 21 3d c6 ca 2d 3c 28 7b 7a bd fa 8d 7c 3d
       0.039447047 0.010607427 -0.061152607 0.061658837
0003d0 6b 84 04 bd 6e 9d 0f bd 0f 1d d8 ba 44 0c 6f bc
       -0.032352846 -0.035062246 -0.0016488152 -0.014590327
0003e0 b7 06 11 be 29 27 b2 bc 40 dc 3d 39 94 68 2a bc
       -0.14162718 -0.021747189 0.00018106494 -0.01040091
0003f0 ce 0f 3d bd 8a 30 18 3d a5 c4 41 3d 54 81 7b bd
       -0.04615765 0.037155665 0.047306675 -0.061402634

net.4.bias f4 [64]
000000 9e 5f 77 3c 83 9e a2 3d 68 c3 1f bc 10 f2 04 bd
       0.0150984805 0.0794039 -0.009751178 -0.03245741
000010 bf 09 81 3d e0 5d ba 3d 1e 84 20 3c 99 0e b5 bc
       0.06300687 0.090999365 0.009797124 -0.022101687
000020 f2 f4 f7 bc 8c d7 d0 bd f6 8a 99 3c 6a 48 96 3d
       -0.030268166 -0.10197362 0.01874302 0.07338031
000030 0f 5e 6c 3c 4b 94 ad 3d 96 2d 8f 3d cf 3e 27 bd
       0.014426722 0.0847555 0.06991117 -0.040831383
000040 2c 42 1f 3c 8e f9 d6 bc fa 9b d7 3d 25 4e a8 bd
       0.009720366 -0.026242044 0.10527797 -0.0821803
000050 c6 03 30 bd b3 0d d9 3d ef 42 5d bd bb 9d c0 3d
       -0.04297235 0.10598316 -0.05401891 0.09405085
000060 06 c9 a0 3d b0 fb 4a 3d 6f 65 82 bc ef 3b 54 bd
       0.07850842 0.049556434 -0.015917508 -0.05181497
000070 ee 79 34 bb 56 7d 32 bb 22 3c 59 bd 7a 18 3f ba
       -0.0027538496 -0.002723535 -0.053035863 -0.0007289719
000080 6d 7c 8e 3d 36 bb aa 3d 06 d6 90 3d 6e 2e 01 3d
       0.06957326 0.08336489 0.07072072 0.03153842
000090 6d d7 0e bd 3c 89 e2 bb e6 d1 ce bc 85 b5 23 3d
       -0.034873415 -0.0069133323 -0.025246572 0.039968032
0000a0 c6 e7 81 3d 6f 80 28 bc 0d e7 af 3d a7 53 fa 39
       0.063430354 -0.010284527 0.08588991 0.00047746042
0000b0 8e 6a 91 3c 43 74 fb 3c 0e d5 f7 3c 25 5e 8d 3d
       0.017751005 0.030695086 0.03025296 0.06902722
0000c0 ea bd e9 3c bf 0b df bd e8 89 36 3c 9a 5e b8 3d
       0.02853294 -0.10890912 0.011141278 0.09002419
0000d0 29 3d 9e bc 55 c7 8c bd f0 37 29 3e 7e 5a aa 3d
       -0.019316273 -0.06873957 0.16525245 0.08318041
0000e0 01 71 33 bd ee 85 99 3a 1b 6a b6 3d 72 27 a1 bd
       -0.04380894 0.0011712888 0.08906957 -0.07868852
0000f0 80 ae b9 3d 42 cc c1 bd 23 32 b2 3d e3 92 aa 3d
       0.09066486 -0.09462787 0.08700969 0.08328798

net.6.weight f4 [64]
000000 03 dd 89 3f 9e 99 89 3f ea 88 85 3f 15 61 82 3f
       1.0770572 1.0750005 1.0432408 1.0185877
000010 2b 13 89 3f 4b dd 84 3f ba bd 81 3f 78 f4 80 3f
       1.0708975 1.0380033 1.0136025 1.0074606
000020 ac 06 85 3f 79 c8 86 3f 6c b7 86 3f 28 3a 84 3f
       1.0392661 1.0529929 1.0524726 1.0330248
000030 24 7f 86 3f 2a 58 84 3f a7 6a 86 3f 63 52 84 3f
       1.050755 1.0339406 1.0501298 1.0337642
000040 37 b3 85 3f 80 55 85 3f 1f ec 86 3f ed 36 87 3f
       1.0445317 1.0416718 1.0540808 1.0563637
000050 6c 6b 86 3f 51 a7 84 3f eb 46 80 3f 53 3c 84 3f
       1.0501533 1.0363561 1.0021642 1.033091
000060 69 43 86 3f 9f 5b 83 3f 58 b9 86 3f aa e5 87 3f
       1.0489322 1.0262336 1.0525312 1.0616963
000070 77 eb 84 3f 6d e8 86 3f 79 b6 85 3f 4c 2f 87 3f
       1.0384358 1.0539681 1.0446311 1.0561309
000080 e1 20 87 3f 3f 82 85 3f 77 26 86 3f 4f 0d 86 3f
       1.0556909 1.0430373 1.0480489 1.0472811
000090 06 c6 86 3f 09 b9 84 3f c6 5e 84 3f 4d e3 86 3f
       1.0529182 1.0368968 1.0341423 1.0538117
0000a0 bc 20 84 3f c6 0c 84 3f 4b d4 82 3f 6e 43 84 3f
       1.032249 1.0316398 1.0221037 1.0333078
0000b0 3b 25 81 3f 7f 41 85 3f f1 b9 7c 3f 78 58 85 3f
       1.0089487 1.0410613 0.98721224 1.0417624
0000c0 a5 93 81 3f 93 5b 86 3f c4 89 7b 3f cb 4a 86 3f
       1.0123183 1.0496696 0.9825709 1.0491575
0000d0 f0 ac 85 3f 0e 03 7f 3f a5 ce 84 3f 96 59 86 3f
       1.0443401 0.99614036 1.0375563 1.049609
0000e0 7d 61 87 3f 21 75 8a 3f 98 9b 87 3f 1f 47 86 3f
       1.0576626 1.0816995 1.0594358 1.0490454
0000f0 44 82 82 3f de e9 86 3f 20 c1 82 3f 11 ed 85 3f
       1.0196004 1.0540121 1.0215187 1.0462972

net.6.bias f4 [64]
000000 60 bc b3 bd ed 2a 83 3d 04 77 59 bd 23 1f 0e bd
       -0.08776164 0.06404672 -0.053092018 -0.034697663
000010 98 b1 4d 3d 50 67 6d bd ee 0f 34 3d 65 9b 1a bd
       0.050218195 -0.057959855 0.043960504 -0.037745852
000020 90 a5 bf bc 30 9d 8d bd 3c 81 75 bd 78 d7 52 bd
       -0.023394376 -0.06914747 -0.0599377 -0.05147502
000030 e5 5e 83 bd d5 25 56 3d 5b 55 4a bd f1 5a b7 bd
       -0.06414584 0.052282173 -0.049397808 -0.089528926
000040 97 ea 44 3d ee d4 a0 bd 99 fa 1c 3d 8d 3a 91 bd
       0.048075285 -0.07853113 0.038324926 -0.07091246
000050 3e 06 41 bd 1f d8 49 3d 83 8f 5a bd 0c 14 65 3d
       -0.047125094 0.049278375 -0.05335952 0.05592732
000060 be 5e 34 bc ab 64 6c bd 87 0f 56 3d 14 a7 86 bd
       -0.011008916 -0.057713192 0.0522609 -0.065748364
000070 7e 38 64 bd 7e b9 02 3d 71 53 ac bd 55 45 54 bd
       -0.055717938 0.03191518 -0.08414353 -0.051823933
000080 7d 42 5c bd 33 99 26 3d aa da 6a bd 51 f3 93 bd
       -0.053774346 0.040673446 -0.05733744 -0.07224143
000090 34 58 98 3d a6 54 de bc 3c e4 e0 bc c8 b7 73 bd
       0.074386984 -0.027139973 -0.02745258 -0.05950144
0000a0 e8 50 19 bd 70 3b 5d bd ec b7 93 bd 42 e1 e9 bc
       -0.037430674 -0.054011762 -0.07212815 -0.028549794
0000b0 7a ae fd bc 5e ed 91 3d 00 90 19 3c 3a 67 91 3c
       -0.030966986 0.07125352 0.009372711 0.017749418
0000c0 f3 8b a5 bd de 65 71 bd 15 51 63 3d 12 26 0a 3c
       -0.08083334 -0.05893504 0.055497248 0.008431928
0000d0 6d a4 1f 3d 83 68 8f bd 8a 89 90 3d dd 0c 54 bd
       0.038975168 -0.07002356 0.070574835 -0.05177008
0000e0 8e d2 a3 bd a4 a4 05 3d 0a 40 6a 3d 29 33 72 bd
       -0.079991445 0.032627717 0.05718998 -0.05913082
0000f0 25 5a 6c 3d f2 87 6f bd 47 41 3a bd a6 50 7e bd
       0.057703156 -0.058479257 -0.04547241 -0.06208863

net.6.running_mean f4 [64]
000000 73 47 f5 3e 05 bd 31 3f 56 ba 0e 3f 3e 39 0b 3f
       0.47906074 0.69429046 0.55753076 0.5438422
000010 b7 aa 41 3f 9b 5c 08 3f da fa cc 3e f1 9e cf 3e
       0.75651115 0.53266305 0.40035135 0.4055095
000020 a0 cd d2 3e 5b aa c8 3e cd 5c d3 3e 1d ff 24 3f
       0.41172504 0.3919247 0.4128174 0.6445177
000030 03 6b e8 3e 4a 84 6f 3f fd 73 4b 3f 45 f3 c3 3e
       0.45394143 0.9356123 0.7947386 0.38271537
000040 5f bb 22 3f d0 39 10 3f 59 8e 2e 3f 0e 32 fa 3e
       0.63567156 0.56338215 0.68185955 0.48866314
000050 e3 56 e3 3e 4a 2d 23 3f b8 45 f9 3e ac 12 3e 3f
       0.44402227 0.6374098 0.48686004 0.7424724
000060 7f 4f 14 3f 33 9a 0c 3f 10 83 36 3f f4 82 0a 3f
       0.579338 0.5492279 0.71293736 0.5410607
000070 61 78 fe 3e ca 2b 1d 3f 2b 10 c8 3e 97 77 cf 3e
       0.49701217 0.6139494 0.39074835 0.40520927
000080 34 b6 1e 3f 87 a2 12 3f 97 8c 02 3f 16 64 ef 3e
       0.6199677 0.5727925 0.50995773 0.46756047
000090 f1 ae 2a 3f 57 fb ed 3e 1c 01 f3 3e 69 bf 23 3f
       0.6667319 0.4648082 0.47461784 0.63963944
0000a0 a7 07 02 3f df 42 98 3e c4 a1 f0 3e 8a a3 04 3f
       0.50792927 0.2973852 0.46998417 0.5181204
0000b0 8a f3 d9 3e cb e8 31 3f 36 d6 95 3e ca a0 0f 3f
       0.42568618 0.6949584 0.29264992 0.5610472
0000c0 13 a0 e1 3e a2 39 99 3e 0a 2f c2 3e a4 fb 2b 3f
       0.4406744 0.29926783 0.37926513 0.6718085
0000d0 52 bb 2b 3f 38 3e c1 3e 2c cf 4c 3f 0f bc dd 3e
       0.67082703 0.37742782 0.8000362 0.4330754
0000e0 83 c9 e7 3e f7 39 31 3f 9a 6a 20 3f 39 26 07 3f
       0.4527093 0.6922907 0.6266266 0.527927
0000f0 d0 06 22 3f b7 4a f9 3e 85 37 2c 3f 7e 5b 14 3f
       0.63291645 0.48689815 0.67272216 0.57952106

net.6.running_var f4 [64]
000000 31 71 4b 3f 56 99 f5 3e a0 4a 13 3f 1d 83 2c 3f
       0.7946959 0.4796855 0.57535744 0.67387563
000010 3e fd 30 3f f5 5d 14 3f f6 f8 7c 3e 91 8e b5 3e
       0.69136417 0.5795587 0.24704346 0.35460332
000020 d9 a4 a7 3e 08 50 1c 3f dd 9a 3e 3f 33 39 6a 3f
       0.32742956 0.6105962 0.7445505 0.9149353
000030 e8 e8 22 3f b5 ce 5f 3f 9d 1d 8c 3f dd 9c 05 3f
       0.63636637 0.87424785 1.0946537 0.5219248
000040 66 88 f5 3e a5 15 24 3f df 38 3d 3f 19 e7 34 3f
       0.47955626 0.64095527 0.73914903 0.7066513
000050 86 c3 e9 3e 3a d7 12 3f ff 88 28 3f 7c 49 7e 3f
       0.45656985 0.5735966 0.6583404 0.9933088
000060 b7 5f b9 3e c4 b8 11 3f 07 05 41 3f 4e 27 4e 3f
       0.36205837 0.56922555 0.75398296 0.80528724
000070 1d 38 fd 3e dd 09 2a 3f 0c 5c 22 3f e7 aa c2 3e
       0.49456874 0.664213 0.634217 0.38021013
000080 79 3f 44 3f 14 95 00 3f 6a 0a e9 3e 26 9f 3c 3f
       0.7665935 0.50227475 0.45515758 0.7368034
000090 1d db 25 3f de d7 dd 3e 3a fb d5 3e f2 92 11 3f
       0.64787465 0.43328756 0.41793233 0.56864846
0000a0 b5 11 f3 3e b0 8e 57 3e 67 aa bd 3e 49 3b 04 3f
       0.47474447 0.21050525 0.3704407 0.5165296
0000b0 c1 57 af 3e 7d 5e 00 3f a9 07 4b 3e 3e 11 f6 3e
       0.34246638 0.5014418 0.19827141 0.4806003
0000c0 f4 b3 1d 3f e4 95 b2 3e 15 d4 4f 3e ed 72 eb 3e
       0.6160271 0.34879982 0.20295747 0.4598612
0000d0 ff 9a 35 3f 05 0c 01 3f a5 e4 2b 3f 72 83 d6 3e
       0.7093963 0.50408965 0.6714576 0.4189716
0000e0 df 71 16 3f 84 3b 33 3f 55 d0 14 3f ff a8 4e 3f
       0.58767503 0.7001269 0.5813039 0.8072662
0000f0 67 66 17 3f 1c 65 2c 3f 6b 38 3d 3f 79 3d 81 3f
       0.5914063 0.6734178 0.7391421 1.0096885

net.8.weight f4 [32, 64]
000000 48 a0 7f bd a6 7e a9 3d b0 40 a0 3d e3 a1 65 3d
       -0.062408715 0.082761094 0.07824838 0.05606259
000010 a0 38 ef 3b 52 39 8a bd 9f 43 71 bc dc b6 87 3d
       0.0073004514 -0.06749214 -0.014725595 0.066266745
000020 db ad 0f bd 64 43 b9 3d 59 9c 60 3d 2b f5 26 3d
       -0.03507791 0.09046057 0.054836605 0.040761154
000030 ae d0 81 bd 66 17 93 bd 7c 96 0c 3d fa c5 47 bd
       -0.063386306 -0.07182197 0.0343232 -0.04877279
000040 da 20 e5 3c fa cb 0f 3d c5 ee 66 bd 24 5d 8c 3d
       0.027969766 0.035106637 -0.056380052 0.06853703
000050 e5 28 64 bd 41 b9 af bd a5 35 c4 3d cd 46 62 bd
       -0.055703063 -0.08580256 0.095805444 -0.055243302
000060 ea 31 1a 3d e6 78 83 bd e4 5a 75 3d 84 a7 f4 bd
       0.037645258 -0.06419544 0.059901133 -0.119460136
000070 be ec 9d 3d 4d 6e 0a bd d1 ec 0f bc db fe 9a ba
       0.077111706 -0.033796597 -0.008784489 -0.001182522
000080 d3 61 22 bc 81 d7 b6 3d 6c f6 d2 ba 59 e8 32 3d
       -0.009911018 0.08927823 -0.0016095168 0.043678615
000090 18 10 80 3d 23 14 9a 3c 54 a8 47 3d a8 74 de bc
       0.0625307 0.01880843 0.048744515 -0.027155235
0000a0 7d c0 ac 3d 3d ef 7f bd aa 8d aa bd 4f 97 54 3c
       0.08435152 -0.062484015 -0.083278015 0.012975528
0000b0 8b 2f aa 3d 88 45 d6 3d 91 00 34 3d 55 8b aa bc
       0.08309849 0.10462481 0.043945853 -0.020818392
0000c0 1b 21 e4 3c ce 5e 8e 3c 7c 14 db 3c 69 af 65 3d
       0.027847817 0.01737919 0.026743166 0.056075487
0000d0 f8 5b ac 3d 7a f2 87 bd 1b 2f 0f 3d ed 66 be bd
       0.08415979 -0.066380456 0.034957033 -0.09296975
0000e0 4f 42 03 bd cf e7 eb bc 85 f3 a4 3c a5 74 f6 3c
       -0.03204566 -0.028797058 0.02013565 0.030084917
0000f0 26 36 7a bd b0 94 59 bd 1b 2e 7b 3d 1a 90 7e 3d
       -0.061086796 -0.053120315 0.061323266 0.062149145
000100 66 75 4f bd e7 87 04 bc c4 c7 c3 bc 64 f6 90 bd
       -0.05064907 -0.008089042 -0.023898967 -0.07078245
000110 97 fa 64 bd d5 b9 b7 3d 38 af 9d bc 70 1e 60 3d
       -0.055903044 0.089709915 -0.01924859 0.054716527
000120 46 78 0f 3c 6b c5 a5 3c d0 79 90 bc 6f a3 0c 3d
       0.008756703 0.020235738 -0.01763621 0.03433555
000130 89 6c 70 ba 73 e5 a9 3c 4e 79 8d bd 1e a4 a8 bd
       -0.00091714464 0.020739293 -0.06907903 -0.08234428
000140 d4 88 a5 3d d9 bd 50 3d 32 d3 63 bd 37 5a fb 3d
       0.080827385 0.050962303 -0.055621333 0.122730665
000150 82 f8 10 3d 6d 71 d5 3d 0e cb 93 bd c4 91 19 bd
       0.035393246 0.10422025 -0.07216464 -0.03749253
000160 14 2b 02 bd 9c 2d 9f bc 89 fa 30 3c d3 9d ce 3d
       -0.031779364 -0.019430928 0.01080192 0.10088696
000170 6d e8 c7 3c bf 7b a3 3c 60 a5 bd 3d 94 42 70 3c
       0.024402821 0.019956468 0.092600584 0.014664311
000180 a0 17 c3 bd 62 bf b0 bd e3 a0 b0 bc 8b 10 85 bd
       -0.095259905 -0.086302534 -0.021561092 -0.06497296
000190 36 56 3d bd 0a 02 fb 3c a3 23 88 3d c3 96 8a bd
       -0.046224795 0.03064062 0.06647422 -0.06767037
0001a0 a0 a2 ba 3d 22 4e 6f 3d 1f 21 ae 3d ee 02 d1 bc
       0.091130495 0.058424123 0.08502411 -0.025514092
0001b0 a6 65 3f 3d 22 05 4a 3d 9f 90 aa 3d cc 1f 1f 3d
       0.0467278 0.0493213 0.083283655 0.038848683
0001c0 25 f0 f1 3d 12 8c 8b bd b2 b8 9e 3c 4f ec 93 bb
       0.11813382 -0.06813826 0.019375179 -0.004514254
0001d0 86 64 1d bd 32 be ba 3c 83 90 0a bc 17 74 d4 bc
       -0.038425945 0.02279577 -0.008457306 -0.025934262
0001e0 53 60 ed 3d de 46 a7 3d 40 23 7e 3d 9d f3 53 3d
       0.11590638 0.08167814 0.062045336 0.051746
0001f0 6b a1 3d 3d 70 53 08 3d 72 3d 6c bd 98 89 07 3d
       0.04629652 0.033282697 -0.057675786 0.033090204
000200 4b 9c 70 ba dd bb 14 3d a0 4a b3 3d b0 31 82 bd
       -0.0009178563 0.036311973 0.08754468 -0.063571334
000210 e6 63 6a bd 33 71 b9 3d b9 7a 26 bd 15 f3 30 bc
       -0.057224177 0.09054794 -0.04064438 -0.010800143
000220 be f1 a1 bd 5c 65 82 bd 6e bf 81 3d 2c a7 2e 3d
       -0.07907437 -0.06366989 0.063353404 0.042639896
000230 60 9c 03 3d ec 5c 2d 3d fb 60 d4 3c 4b 97 c4 bc
       0.032131553 0.042324945 0.02592515 -0.023997923
000240 8b 86 f7 bc 7b 5b 4f 3d a7 fb bd bd 31 03 f9 bc
       -0.030215522 0.050624352 -0.092765145 -0.03039703
000250 8c 04 8b 3d 7b e1 6b bd 26 3b 75 bd f9 b7 41 bd
       0.067879766 -0.05758808 -0.05987086 -0.04729459
000260 1e 43 93 3d a5 b5 ba 3b 4a 8b 18 bd 07 c9 31 3d
       0.07190536 0.0056979232 -0.03724221 0.043404605
000270 e7 a3 26 3d ba 3d 6b 3d 5d c5 26 bd b8 c3 3d bc
       0.040683653 0.057431914 -0.040715564 -0.0115823075
000280 d2 59 16 3d c3 a2 1c 3d ea 79 d6 bd ec 13 bd 3d
       0.036706753 0.03824116 -0.10472472 0.092323154
000290 05 7f b3 3d 81 d8 76 3d 64 59 b8 3d 0c ac cf bc
       0.087644614 0.060265068 0.09001425 -0.025350593
0002a0 72 f0 8d 3d 51 68 00 bd bd e6 d8 bb 08 df 0f 3d
       0.06930627 -0.031349484 -0.006619303 0.03512481
0002b0 10 61 ad 3c 91 64 9a bd 25 56 33 3d 76 b2 c6 3c
       0.021164447 -0.07538713 0.043783326 0.024255019
0002c0 b1 fd 90 bd 5e 01 d8 3d 6a 82 0e 3d 9b 4c 71 bd
       -0.07079638 0.10547136 0.03479234 -0.058910947
0002d0 92 2a aa 3c 17 fa 8b bd 31 d0 97 3d 4c 6e ee bc
       0.020772252 -0.0683481 0.07412756 -0.029105328
0002e0 b4 39 10 3b dc d8 0f bd 9a 13 be bc 76 5d 09 bd
       0.002200705 -0.035118923 -0.023202706 -0.033536397
0002f0 69 b0 1c bd e5 ab 46 bd 50 96 ba 3d 8e 96 1d bd
       -0.038254175 -0.048503775 0.09110701 -0.03847366
000300 2e fd 15 bd 00 27 8e 3c 24 0e 31 3d a5 db 8b 3d
       -0.036618404 0.017352581 0.043226376 0.06829003
000310 61 fd d9 bd 3b b0 94 bd fd 9f d5 bd 0a ee f9 bd
       -0.10644031 -0.07260176 -0.10430906 -0.122036055
000320 aa 2f cb bc c9 47 fb bd 2e ae fd bd 19 6b b5 3d
       -0.024803001 -0.12269551 -0.12386738 0.08858318
000330 f3 9d 49 bc 39 f7 62 3b 86 f7 0a 3e e0 42 3b 3d
       -0.012305724 0.003463222 0.13570985 0.045718074
000340 ee 3f 09 3e f1 44 bb 3d 79 d5 15 be f3 cc 1a be
       0.13403293 0.09144009 -0.14632215 -0.15117244
000350 a4 ec 0c be 49 93 e5 bd c6 3c 3c bd 85 b3 1f 3e
       -0.13762146 -0.11209733 -0.045956396 0.15595825
000360 3f 0e 11 be 28 71 48 bc 87 0b a8 bc a0 e0 1d be
       -0.1416559 -0.01223401 -0.02051331 -0.15417719
000370 03 b1 4c 3c a8 0b 24 be 78 07 6f bd 43 80 34 be
       0.012493375 -0.16020072 -0.058356732 -0.17627053
000380 e7 6b cf 3d 9f ca f2 bd 59 b6 2d be 17 bb cb bc
       0.101280026 -0.11855053 -0.16964091 -0.024869485
000390 a3 fe 90 3c a2 15 08 bd 30 13 84 3d b2 fe 8e bd
       0.017699545 -0.033223756 0.06448972 -0.06982173
0003a0 3f cd 00 3e fa 30 5b 3c 55 b1 66 3d 79 c0 5f 3d
       0.12578295 0.013378376 0.05632146 0.054626916
0003b0 47 f5 09 3e bc 5c 25 bd b8 c3 be bd ed 94 ad 3d
       0.13472472 -0.04037164 -0.09314674 0.08475671
0003c0 13 68 02 3d ea 9b b9 bd 5e cd 3e bc e1 3c 08 be
       0.031837534 -0.09062941 -0.011645643 -0.13304473
0003d0 5e 23 f4 3b 4e c7 38 bd 3c 29 20 3e a8 db af bd
       0.007450505 -0.045111947 0.1564073 -0.08586818
0003e0 2d 35 a0 bd 55 c6 9d bd 4a fa 74 bd e1 8f 24 be
       -0.078226425 -0.077038445 -0.059809007 -0.1607051
0003f0 12 09 cc bb 05 ac 05 be 0c aa f5 bd c3 c4 a4 bc
       -0.006226667 -0.13053901 -0.119953245 -0.020113355

net.8.bias f4 [32]
000000 f7 a3 69 bd c6 a3 f8 bc 77 5a d1 bd 33 ef b4 3b
       -0.057041135 -0.03035153 -0.10222333 0.005521679
000010 0c 7b a1 bd 4c 56 8c bd bf c3 93 bd ea b8 c3 3d
       -0.078847975 -0.06852397 -0.0721507 0.09556754
000020 d7 96 c4 bd 98 bb 8a bd 46 16 a6 3d 84 5a 44 3e
       -0.09599083 -0.06774062 0.08109717 0.19175154
000030 fb 61 77 bd 3a 2e 89 3d b2 b3 51 3d 13 44 26 3e
       -0.060396176 0.0669827 0.05119676 0.16236906
000040 2d 46 48 bc c3 4a 79 3d 5f 90 84 bd ca 59 6a bd
       -0.012223762 0.060862314 -0.06472849 -0.057214536
000050 7a cd 29 bd 64 5e eb 3c 96 cd 2e 3e 91 c8 0e bd
       -0.041455723 0.028731532 0.17070612 -0.034859244
000060 6a 76 f3 bd b6 2c 00 bd e8 73 cc bc 82 f7 d5 3d
       -0.1188782 -0.03129264 -0.024957612 0.10447599
000070 38 f6 3e 3e 1a 5a 55 3d 27 57 fd 3c 7f 75 eb bc
       0.18648612 0.05208788 0.030925347 -0.02874255

net.10.weight f4 [1, 32]
000000 33 20 ec bd 64 c9 c6 bd 3b 1b ba bd 1c 16 22 3e
       -0.11529579 -0.09706381 -0.09087225 0.15828747
000010 54 89 c0 bc 22 19 2b 3c 52 4d 59 3e 75 cb db 3d
       -0.023502983 0.010443004 0.21220902 0.10732166
000020 96 25 5a 3a fa 9f 19 3e cd b7 d6 bd 47 bc 98 3d
       0.0008321641 0.15002432 -0.10484276 0.07457786
000030 90 a4 21 3e 30 86 2b 3e 19 87 d3 bd 5a 7f 34 3e
       0.15785432 0.16750407 -0.10328502 0.17626706
000040 d6 ec 0f 3e a0 25 19 3e ba 9f e0 bc 4c 7c 22 3e
       0.1405519 0.14955759 -0.027419914 0.15867728
000050 77 16 25 bd 84 62 6c 3d 30 e0 cb 3d 6a bb ad bc
       -0.040304627 0.05771114 0.0995487 -0.02120753
000060 5a 95 20 3c c6 e2 ea bd 89 29 c3 bd cb 1e 45 3d
       0.009801233 -0.11469035 -0.095294066 0.04812507
000070 04 12 a0 3d 7e 28 9c 3d dc 72 46 bd 38 24 a0 3b
       0.07815936 0.07624911 -0.048449382 0.00488713
