server/met_fatigue_minimal.pt (torch, 3413 bytes, 3 tensors)

fc1.weight f4 [32, 3]
0	0xbf33d693	-0.7024929
1	0xbe084016	-0.13305697
2	0xbdd095db	-0.10184833
3	0x3f1b2e1d	0.6061724
4	0xbdd0a9ba	-0.10188623
5	0xbedae3b4	-0.4275185
6	0x3e3034e3	0.17207675
7	0xbdbebc20	-0.09313226
8	0xbe8a3dac	-0.27000177
9	0x3ecd552b	0.4010404
10	0xbf372be4	-0.71551347
11	0x3da33d2f	0.07970654
12	0x3f13fa6e	0.57804
13	0x3f02cd63	0.51094645
14	0x3dbd0258	0.09228963
15	0x3df5c294	0.120000035
16	0xbdcfc0f8	-0.10144228
17	0xbe6f5faa	-0.23376337
18	0x3ec67531	0.38761285
19	0x3e8e7424	0.27822983
20	0xbdad5f70	-0.08465469
21	0xbaf0886e	-0.0018351206
22	0x3eaefc46	0.34176844
23	0x3e9d6c74	0.30746806
24	0xbdcda158	-0.100405395
25	0xbe900b79	-0.28133753
26	0xbec35374	-0.38149607
27	0x3dfdd773	0.12394609
28	0xbf1b555d	-0.6067713
29	0xbdd7914e	-0.105257615
30	0xbf66bdd7	-0.9013342
31	0x3e935a3f	0.2877979
32	0xbd931cd1	-0.07183231
33	0xbeb6dbc2	-0.35714537
34	0xbf55907d	-0.83423597
35	0x3d8253db	0.063636504
36	0x3db65971	0.08903778
37	0xbf22e701	-0.63633734
38	0xbe303358	-0.17207086
39	0x3e892d71	0.26792482
40	0x3e8a02dd	0.2695531
41	0x3d63af1c	0.05558692
42	0x3ea63e2f	0.32469317
43	0x3e9fa148	0.31177735
44	0xbd7d5d5f	-0.061856624
45	0x3d59e609	0.053197894
46	0x3e5822e2	0.21107057
47	0x3d87fd82	0.0664015
48	0x3e28b866	0.16476592
49	0xbef912d0	-0.48647165
50	0x3e149091	0.14508273
51	0x3e2d1b43	0.16904931
52	0x3cf7422f	0.030182926
53	0x3dcc8fd9	0.09988374
54	0x3e81953f	0.25309178
55	0xbea18510	-0.3154683
56	0xbe8860d4	-0.26636374
57	0xbd375038	-0.044754237
58	0x3e642741	0.22280599
59	0x3e0fc8b0	0.140414
60	0x3e445e75	0.19176657
61	0xbe95d733	-0.29265746
62	0x3ee7e312	0.45290428
63	0x3eb8184d	0.3595604
64	0x3ecea62c	0.40361154
65	0xbdd93951	-0.10606635
66	0x3e9a1163	0.3009139
67	0x3eba9ba3	0.36446866
68	0xbdb15056	-0.08657901
69	0x3eb2f44f	0.34952018
70	0x3e8adfab	0.2712377
71	0xbd457fe0	-0.048217654
72	0xbf558dbd	-0.834194
73	0xbe911566	-0.28336638
74	0xbd23a674	-0.039953664
75	0x3e0d0354	0.13770801
76	0xbe139743	-0.1441317
77	0x3d6a57f7	0.057212796
78	0x3f5af4ec	0.8552997
79	0x3f4826fa	0.78184474
80	0xbcc6f5ee	-0.02428719
81	0x3f0b1f51	0.5434466
82	0x3f26d74a	0.65172255
83	0xbe1f2bec	-0.15544099
84	0x3d0101f9	0.031496022
85	0xbd9d0d84	-0.076685935
86	0x3e52d192	0.20587757
87	0xbf0b69dc	-0.54458404
88	0xbf148971	-0.5802222
89	0x3ecb559a	0.39713746
90	0xbe214472	-0.15748766
91	0x3e906d65	0.2820846
92	0xbe627f07	-0.2211877
93	0x3f13360a	0.5750433
94	0x3f0d20be	0.55128086
95	0xbe5495a9	-0.20760216

fc1.bias f4 [32]
0	0x3e247640	0.16060734
1	0x3e79b839	0.24386682
2	0x3f563ce5	0.8368667
3	0xbf4eb617	-0.807466
4	0x3f4fee43	0.81222934
5	0x3f3566ca	0.7085997
6	0x3edf72da	0.43642312
7	0xbe82c6b4	-0.25542223
8	0x3f6293ae	0.8850659
9	0xbf060def	-0.5236501
10	0xbf6eee44	-0.93332314
11	0xbe63f992	-0.22263172
12	0xbd6c4a76	-0.0576882
13	0x3e4eb75a	0.2018713
14	0x3d6862b6	0.056734763
15	0x3e7075f1	0.23482491
16	0xbed55280	-0.41664505
17	0x3ee2f9d4	0.4433123
18	0xbe93489c	-0.28766334
19	0x3f5c173b	0.85972947
20	0xbd4d7ba0	-0.050166726
21	0x3f29ffb5	0.664058
22	0x3e92ebbb	0.28695473
23	0x3f522922	0.82094014
24	0xbebac176	-0.36475724
25	0x3f17f005	0.59350616
26	0xbedae790	-0.42754793
27	0x3f04ba04	0.5184634
28	0x3f0e6e34	0.55636907
29	0xbe9cf722	-0.30657297
30	0x3f5aa26e	0.854041
31	0x3e51537f	0.20442007

fc2.weight f4 [1, 32]
0	0xbe1f2517	-0.15541492
1	0xbdd9abc9	-0.106284685
2	0x3e921c0e	0.2853703
3	0xbf2c0070	-0.6718817
4	0x3e60a168	0.21936572
5	0x3e88ae52	0.26695496
6	0x3e367968	0.1781975
7	0xbdf70e77	-0.12063306
8	0x3e9c0724	0.30474198
9	0xbf2f2b73	-0.68425673
10	0xbfb2769d	-1.3942448
11	0xbf0955c9	-0.5364652
12	0xbe8842d3	-0.26613483
13	0x3e5efa94	0.21775275
14	0x3d100027	0.035156395
15	0xbd114ce3	-0.035473716
16	0xbee7eb90	-0.45296907
17	0x3ec28a9b	0.37996373
18	0xbe419c73	-0.18907337
19	0x3e4e65b5	0.20155986
20	0x3dd7c724	0.1053603
21	0x3e9b0081	0.30273822
22	0x3e950370	0.29104185
23	0x3e4c13ed	0.19929476
24	0xbeea5609	-0.45768765
25	0x3da07120	0.07834077
26	0xbf1c5ed7	-0.61082214
27	0x3e8a7362	0.27041155
28	0x3e9e1e16	0.3088233
29	0xbea8be1a	-0.32957536
30	0x3e356596	0.17714533
31	0x3e995bb3	0.29952773
