server/met_fatigue_minimal.pt (torch, 53389 bytes, 15 tensors)

net.0.weight f4 [128, 3]
0.28620753 0.34839857 0.022242248 0.4595282 0.4399164 -0.39569142 0.25473702 -0.4756445
0.4932441 -0.033286937 0.3362448 -0.51851374 -0.023342 0.25867796 -0.51171774 0.0006915784
-0.34897923 0.33801675 0.2957746 0.48855442 0.2142845 0.10986126 0.30054066 -0.26261747
0.21090443 0.4899715 0.070422806 -0.18975526 -0.41852152 -0.08594623 -0.1158762 0.34502932
0.12851694 -0.026515836 -0.34799516 0.31806546 -0.2760626 -0.233767 -0.30995426 0.51813537
0.13978146 -0.04534541 -0.21268432 0.42615235 0.5323403 -0.5781369 0.422799 0.5821858
0.23766445 0.5234808 0.27671897 -0.2745004 0.30975994 0.15782839 -0.596353 0.46276003
0.30940998 0.38358203 0.1018984 0.32984152 0.31353888 -0.049051672 0.02435386 -0.2076503
0.53724504 -0.327135 0.35829452 0.28003973 0.3257516 -0.2273062 0.01990701 0.06055455
-0.5054852 -0.45578694 0.24218228 -0.039418068 -0.47239637 -0.05136569 0.4246225 0.14856789
0.2291032 0.0027361275 0.12598135 0.3801703 0.14294441 -0.060408935 0.5515401 -0.12481602
0.20867476 -0.33173567 0.519743 0.55428344 0.38505656 0.26971188 0.529884 -0.3509234
-0.031682674 -0.59851044 0.3827706 -0.5731848 0.5064127 -0.0045544403 0.18927959 -0.06689739
-0.2664097 0.101014026 -0.40504035 0.11018611 0.46722275 -0.23121077 0.45517397 0.2313206
-0.23338002 0.10849871 0.2549473 0.045743003 0.026509006 -0.47926438 0.4387607 0.2938061
0.32773608 0.0007952331 -0.3309216 -0.3153499 0.07431939 0.2773934 -0.19120777 -0.07266552
0.4736578 -0.41165775 -0.5817414 0.42835683 0.5447506 -0.36571234 0.31419396 0.08733326
0.103779145 0.029142808 -0.5931552 0.11980951 -0.4169164 0.121166386 0.27815837 -0.17688942
-0.47116688 -0.49465635 0.18803872 0.45039406 -0.056587923 0.39258775 0.10204226 -0.36151415
0.5408137 0.57009584 -0.25029948 -0.020393057 -0.3757505 0.29472497 0.30856058 -0.06190541
0.45843512 0.31126368 0.022967678 -0.19402541 -0.20352173 0.21410385 0.029879818 0.43245822
-0.5036352 -0.012500783 -0.1366581 -0.040421434 -0.54914665 -0.36514556 0.217625 0.28693917
-0.50988954 -0.36095923 -0.3105707 0.034460593 -0.2064412 0.3486269 -0.120519936 -0.52127606
-0.19962212 0.07185934 0.5001542 0.13916059 0.5674447 -0.045760524 0.0870749 0.19490948
-0.27676368 -0.017239796 0.0077770227 0.28171518 0.41600096 0.06536999 0.18314616 -0.37180138
0.43083727 0.4608896 -0.1436988 -0.603043 0.16263597 0.54886293 0.23038048 0.10840746
0.22287577 -0.09480068 -0.32354283 -0.40272775 -0.055098183 0.20049348 0.2140361 0.06061292
0.106838964 0.041676413 0.29219264 -0.5895748 0.42889714 -0.33499616 -0.50902545 -0.09978944
-0.1493926 -0.430493 0.3734428 0.51008844 0.25596118 -0.14713049 -0.1976579 0.11666755
-0.4334423 0.26918995 0.2778426 -0.20508592 -0.18499681 -0.49539107 0.094013155 -0.46830732
0.57755667 0.49465343 -0.3250431 -0.45514098 0.07215622 0.27247804 0.21954764 0.3740643
0.32790688 -0.16845496 -0.26951653 0.24033849 -0.53118646 0.13950299 0.211875 0.48659888
00000000: cb89 923e 4c61 b23e 6035 b63c 4847 eb3e
00000010: b93c e13e 1198 cabe e46c 823e ad87 f3be
00000020: 7e8a fc3e e257 08bd 4728 ac3e 51bd 04bf
00000030: b937 bfbc 7071 843e efff 02bf 0a4b 353a
00000040: 68ad b2be 8810 ad3e c56f 973e ce23 fa3e
00000050: 656d 5b3e f1fe e03d 77e0 993e cc75 86be
00000060: 55f7 573e 8bdd fa3e d539 903d 344f 42be
00000070: 7448 d6be 9404 b0bd 8050 edbd afa7 b03e
00000080: f299 033e bd37 d9bc 6c2c b2be 7ad9 a23e
00000090: 1458 8dbe 9e60 6fbe 53b2 9ebe 85a4 043f
000000a0: df22 0f3e 1cbc 39bd ebc9 59be a430 da3e
000000b0: 7447 083f c800 14bf 1c79 d83e 210a 153f
000000c0: 4f5e 733e d602 063f 1cae 8d3e 518b 8cbe
000000d0: db98 9e3e c49d 213e 97aa 18bf e2ee ec3e
000000e0: fc6a 9e3e dd64 c43e 1cb0 d03d fde0 a83e
000000f0: 2b88 a03e 68ea 48bd bf81 c73c 48a2 54be
00000100: e488 093f 3d7e a7be 6172 b73e 5e61 8f3e
00000110: eac8 a63e f5c2 68be 0714 a33c 0c08 783d
00000120: 7a67 01bf e85c e9be a2fe 773e d774 21bd
00000130: f0dd f1be d464 52bd 1f68 d93e 2e22 183e
00000140: 079a 6a3e 9a50 333b 4101 013e aea5 c23e
00000150: 0560 123e 5c6f 77bd bb31 0d3f 8b9f ffbd
00000160: d6ae 553e 42d9 a9be e10d 053f 85e5 0d3f
00000170: 2226 c53e ad17 8a3e 7aa6 073f 3bac b3be
00000180: b1c5 01bd fb37 19bf 82fa c33e 3dbc 12bf
00000190: 43a4 013f 6a3d 95bb 82d2 413e 8001 89bd
000001a0: da66 88be 71e0 ce3d 7361 cfbe 41a9 e13d
000001b0: d237 ef3e 84c2 6cbe 900c e93e 4fdf 6c3e
000001c0: 2cfb 6ebe 9234 de3d 7488 823e 045d 3b3d
000001d0: 6a29 d93c 2462 f5be 3ea5 e03e c16d 963e
000001e0: 06cd a73e 3177 503a 8e6e a9be 8b75 a1be
000001f0: c434 983d 8206 8e3e f8cb 43be a9d1 94bd
00000200: 4683 f23e cec4 d2be 01ed 14bf 9651 db3e
00000210: c674 0b3f a63e bbbe 08de a03e c8db b23d
00000220: 298a d43d e6bc ee3c 05d9 17bf b05e f53d
00000230: 1176 d5be 1526 f83d c66a 8e3e 8022 35be
00000240: c93c f1be 9943 fdbe 398d 403e 0d9a e63e
00000250: bdc8 67bd 4301 c93e 88fb d03d 6218 b9be
00000260: c472 0a3f cdf1 113f 4127 80be 570f a7bc
00000270: 5f62 c0be 31e6 963e a7fb 9d3e 8790 7dbd
00000280: 02b8 ea3e f45d 9f3e b626 bc3c 99ae 46be
00000290: 0068 50be 0a3e 5b3e 85c6 f43c 2a6b dd3e
000002a0: 3dee 00bf 16d0 4cbc 1af0 0bbe f290 25bd
000002b0: e094 0cbf 5cf4 babe 17d9 5e3e b1e9 923e
000002c0: 1f88 02bf a6cf b8be 1f03 9fbe 8d26 0d3d
000002d0: 5265 53be 3a7f b23e 28d3 f6bd 5972 05bf
000002e0: be69 4cbe fd2a 933d 1b0a 003f 1d80 0e3e
000002f0: 0e44 113f 636f 3bbd 5354 b23d 5a96 473e
00000300: f8b3 8dbe 793a 8dbc 65d6 fe3b f93c 903e
00000310: 14fe d43e b4e0 853d ab8a 3b3e c05c bebe
00000320: b496 dc3e b9f9 eb3e c725 13be 0761 1abf
00000330: 0b8a 263e 4882 0c3f dce8 6b3e bb04 de3d
00000340: 8c39 643e dc26 c2bd 68a7 a5be 5532 cebe
00000350: a2ae 61bd 2a4e 4d3e 482c 5b3e 4145 783d
00000360: 63ce da3d e3b4 2a3d 469a 953e 60ee 16bf
00000370: 6898 db3e 9e84 abbe 7e4f 02bf 685e ccbd
00000380: 60fa 18be 9469 dcbe e533 bf3e 2895 023f
00000390: 580d 833e 60a9 16be d566 4abe 65ef ee3d
000003a0: 26ec ddbe 44d3 893e 6341 8e3e 0b02 52be
000003b0: ce6f 3dbe e6a3 fdbe f889 c03d fac5 efbe
000003c0: c1da 133f 3743 fd3e 0d6c a6be 3d08 e9be
000003d0: a4c6 933d 3e82 8b3e 19d1 603e 5b85 bf3e
000003e0: 69e3 a73e 757f 2cbe 12fe 89be 4b1b 763e
000003f0: d6fb 07bf dfd9 0e3e c3f5 583e 7d23 f93e

net.0.bias f4 [128]
0.07333101 0.4354661 -0.47850156 -0.37782675 -0.48161197 0.066818185 0.59367824 -0.11396517
-0.0045711207 -0.37154546 -0.49307585 -0.4714372 -0.23046291 -0.46180156 -0.4574877 0.39165747
-0.3814432 0.56993425 0.16353437 0.24951084 -0.10967918 -0.4260957 -0.29258725 0.53200597
-0.29708606 -0.098382086 -0.26579922 -0.2791644 0.081496455 -0.2352454 -0.009477561 0.40205485
0.49265394 0.26935428 0.054336365 0.10904065 0.20195 -0.51550144 0.46674764 0.3315661
0.18385091 0.45173958 0.10305891 -0.24531725 0.32911205 -0.36913934 -0.12329451 0.20832615
-0.04629068 0.2444718 0.46865758 -0.18081692 -0.10567167 0.024656914 0.2659184 -0.21108645
0.060017228 -0.5538563 -0.2995407 0.2684906 -0.042113606 -0.10780173 0.23795493 -0.36142462
-0.32657048 0.6757904 0.45071995 -0.15086308 0.28449902 0.37913257 0.03661605 -0.34462908
0.30730605 -0.19232444 -0.29801813 0.17668666 0.09976995 0.25261065 -0.49003538 0.22350644
-0.036731616 0.13787548 0.19055651 -0.33103192 -0.32555488 -0.3414843 -0.19883157 -0.4465738
0.060774524 0.3093642 0.36667728 0.100259855 0.26255235 -0.33235806 -0.41943857 0.18440305
0.5502659 0.25511461 -0.42366195 -0.13852763 -0.051975742 -0.16821772 -0.15818231 0.05842512
0.56207997 -0.6292697 0.6153422 -0.1889224 0.4167848 -0.44912595 -0.35310248 -0.48062998
-0.37921685 -0.14057736 -0.21885277 -0.00021547428 -0.21607013 0.47269094 0.54388225 -0.22698128
-0.28205803 0.22782883 0.04447946 0.25343508 0.018136479 0.09147051 0.11419117 -0.22176498
00000000: 922e 963d 6af5 de3e 28fe f4be 8272 c1be
00000010: d895 f6be f9d7 883d 4cfb 173f 9266 e9bd
00000020: 57c9 95bb 353b bebe 7074 fcbe 3760 f1be
00000030: 78fe 6bbe 4171 ecbe d43b eabe 5487 c83e
00000040: 864c c3be 36e7 113f 8e75 273e c57f 7f3e
00000050: 7a9f e0bd 3729 dabe ffcd 95be 8b31 083f
00000060: aa1b 98be 8c7c c9bd d616 88be a3ee 8ebe
00000070: 9de7 a63d 2ce4 70be c647 1bbc 22da cd3e
00000080: 233d fc3e cee8 893e cf8f 5e3d b450 df3d
00000090: fbcb 4e3e e7f7 03bf 8cf9 ee3e 08c3 a93e
000000a0: 6a43 3c3e 694a e73e 8d10 d33d 7234 7bbe
000000b0: 6081 a83e d5ff bcbe d581 fcbd 7353 553e
000000c0: 4c9b 3dbd d156 7a3e e3f3 ef3e 1228 39be
000000d0: 636a d8bd 4cfd c93c 7526 883e 0c27 58be
000000e0: a0d4 753d 87c9 0dbf 665d 99be 9a77 893e
000000f0: 517f 2cbd 27c7 dcbd 75aa 733e a60c b9be
00000100: 3f34 a7be 9a00 2d3f c4c4 e63e da7b 1abe
00000110: dba9 913e aa1d c23e b6fa 153d 3973 b0be
00000120: 3857 9d3e b3f0 44be d595 98be 59ed 343e
00000130: 3054 cc3d 2f56 813e ebe5 fabe dfde 643e
00000140: e473 16bd 3b2f 0d3e 3f21 433e 047d a9be
00000150: 21af a6be 08d7 aebe 819a 4bbe 52a5 e4be
00000160: b5ee 783d fc64 9e3e 20bd bb3e 0a55 cd3d
00000170: 436d 863e d62a aabe a7c0 d6be 27d4 3c3e
00000180: 3ade 0c3f 629e 823e 38ea d8be 30da 0dbe
00000190: 84e4 54bd 4441 2cbe 8bfa 21be 2e4f 6f3d
000001a0: 79e4 0f3f d217 21bf 1187 1d3f e074 41be
000001b0: d164 d53e d6f3 e5be d9c9 b4be 2215 f6be
000001c0: b628 c2be 83f3 0fbe f11a 60be f0f0 61b9
000001d0: 7d41 5dbe 8c04 f23e de3b 0b3f c86d 68be
000001e0: e969 90be f64b 693e 1830 363d 3ec2 813e
000001f0: f492 943c e454 bb3d 0fdd e93d 5c16 63be

net.2.weight f4 [128]
1.0272568 0.99471843 0.9698709 0.9677252 0.9668212 0.9817042 1.0181438 0.96744335
1.016749 1.0481775 0.9700271 1.0036641 0.992543 0.99047554 0.9514563 0.9886266
0.97803116 0.9694546 0.9805569 0.99752706 0.9775166 0.980925 1.0287583 0.98242366
1.0357885 0.99010104 1.0021088 0.9858115 0.9624557 1.0036315 1.0354407 1.0243523
0.9784188 0.95800203 0.97241455 1.004975 0.99064314 0.961742 0.97213864 0.9955288
0.98357147 0.97850865 0.9407183 1.0298824 0.9588086 0.9910644 0.99305624 0.99276227
1.0391223 1.0050087 0.9912276 0.9621837 0.98015475 1.002918 0.99286133 0.9791736
1.02173 0.99227506 0.9890554 1.0743195 0.9491897 1.0528965 0.9795331 0.96475947
1.0783002 1.039295 0.98764235 0.96782964 1.0121578 0.99621135 1.0411253 1.0376838
0.967755 0.99191415 1.000995 0.9793874 0.96125466 0.9938836 1.00012 0.97792953
0.98251414 0.96945864 0.9786885 0.9995713 0.9984893 1.0009723 1.1024249 1.017016
1.0303437 1.0162041 0.9512874 0.9897851 1.0023823 0.9503581 0.96462005 0.9614742
0.98827153 0.9493141 1.0357378 0.97104686 0.9791176 0.98826736 0.98549175 1.0323664
0.98301077 0.982727 0.96908003 0.99477345 0.98505 0.9731483 0.953511 1.0885718
0.9817453 0.97552943 0.9762028 0.96731985 1.0342045 0.9616563 0.98352134 1.0045364
0.99190843 0.9849912 1.0135356 0.9772477 1.0073286 0.9978507 1.0065414 1.0186206
00000000: 277d 833f dea5 7e3f 7649 783f d7bc 773f
00000010: 9881 773f f750 7b3f 8952 823f 5eaa 773f
00000020: d524 823f ae2a 863f b253 783f 1178 803f
00000030: 4c17 7e3f ce8f 7d3f a492 733f a216 7d3f
00000040: 4060 7a3f 2d2e 783f c705 7b3f ef5d 7f3f
00000050: 873e 7a3f e71d 7b3f 5aae 833f 1e80 7b3f
00000060: b894 843f 4377 7d3f 1a45 803f 245e 7c3f
00000070: 7f63 763f ff76 803f 5289 843f fa1d 833f
00000080: a879 7a3f 9f3f 753f 29f0 783f 05a3 803f
00000090: ca9a 7d3f b934 763f 14de 783f fada 7e3f
000000a0: 57cb 7b3f 8b7f 7a3f ead2 703f 30d3 833f
000000b0: 7b74 753f 66b6 7d3f ef38 7e3f ab25 7e3f
000000c0: f601 853f 20a4 803f 18c1 7d3f ac51 763f
000000d0: 6ceb 7a3f 9e5f 803f 292c 7e3f 1fab 7a3f
000000e0: 0cc8 823f bd05 7e3f bc32 7d3f 4d83 893f
000000f0: 19fe 723f 50c5 863f aec2 7a3f 7afa 763f
00000100: be05 8a3f 9e07 853f 21d6 7c3f afc3 773f
00000110: 638e 813f b507 7f3f 9843 853f d3d2 843f
00000120: cbbe 773f 16ee 7d3f 9b20 803f 22b9 7a3f
00000130: c914 763f 286f 7e3f ef03 803f 9759 7a3f
00000140: 0c86 7b3f 712e 783f 548b 7a3f e8e3 7f3f
00000150: ff9c 7f3f dc1f 803f 421c 8d3f 952d 823f
00000160: 4de2 833f fa12 823f 9287 733f 8e62 7d3f
00000170: 104e 803f ab4a 733f 57f1 763f 2c23 763f
00000180: 5dff 7c3f 4006 733f 0e93 843f 8796 783f
00000190: 73a7 7a3f 17ff 7c3f 3049 7c3f 9524 843f
000001a0: 98a6 7b3f ff93 7b3f a115 783f 79a9 7e3f
000001b0: 3d2c 7c3f 3f20 793f 4c19 743f 5256 8b3f
000001c0: a953 7b3f 4cbc 793f 6de8 793f 46a2 773f
000001d0: d060 843f 1b2f 763f 0ec8 7b3f a694 803f
000001e0: b6ed 7d3f 6228 7c3f 89bb 813f e82c 7a3f
000001f0: 25f0 803f 2573 7f3f 59d6 803f 2962 823f

net.2.bias f4 [128]
0.007620664 0.06800602 -0.016253166 -0.032649234 0.024032094 0.014814524 0.068813644 0.047489867
0.055596724 -0.07603226 -0.027742285 -0.02112155 -0.038336866 -0.009173141 0.032608908 0.0012942103
0.029046152 -0.011649505 -0.0065128407 0.018216947 0.018518815 -0.036767464 0.02748262 0.0058143632
-0.07400077 -0.08502256 0.0101039 0.055912267 0.005121975 -0.0050463085 -0.011310852 0.028197663
-0.020520644 -0.0017453242 0.030080317 -0.058811076 0.045514967 -0.045399796 0.049390104 0.010586519
0.01760388 0.008057905 0.01712739 -0.053231016 0.008526478 0.09904207 -0.04545498 0.027209045
-0.061191812 0.032590494 -0.017030166 0.008475121 0.009999715 -0.037162665 -0.024028435 -0.030836517
-0.07892622 0.01975293 0.017791482 -0.08138394 0.028386924 -0.1031127 -0.01738165 -0.050312046
-0.10687247 0.0270097 0.0114194825 0.012882131 0.04753037 0.04990886 -0.078229785 -0.008268777
0.0031215874 -0.036963634 -0.052965112 -0.0069631645 -0.03206404 0.01883103 -0.043727286 -0.0024144738
0.049892187 -0.05737898 0.00799894 -0.03819018 -0.037799604 -0.00087205315 -0.09950902 0.017038014
0.055709418 -0.0020284622 0.0058947466 -0.02603937 0.027092258 -0.0017615169 -0.021618877 0.006801756
-0.077074096 0.017678667 -0.07121801 -0.072808824 -0.009289027 0.100412585 -0.007998647 -0.046399523
-0.0123106 -0.035165817 -0.010400212 -0.03781801 -0.0050060856 -0.037771095 0.027194485 -0.054270513
-0.014451278 -0.037332326 -0.0152593125 -0.06444667 0.00036828345 -0.049250916 0.03262392 -0.040666647
0.02655869 -0.034221213 -0.07306055 0.0063742176 -0.02910885 0.022738196 -0.057606027 -0.014299415
00000000: c3b6 f93b bd46 8b3d 5c25 85bc 34bb 05bd
00000010: f4de c43c 9eb8 723c 2bee 8c3d bc84 423d
00000020: 64b9 633d cdb6 9bbd ca43 e3bc 1a07 adbc
00000030: 1e07 1dbd f14a 16bc eb90 053d 7ea2 a93a
00000040: 32f2 ed3c 91dd 3ebc ab69 d5bb b53b 953c
00000050: c5b4 973c 7b99 16bd 3b23 e13c 6a86 be3b
00000060: b78d 97bd 4f20 aebd d48a 253c 4304 653d
00000070: 3ed6 a73b 815b a5bb 2751 39bc c9fe e63c
00000080: e91a a8bc 5dc3 e4ba ff6a f63c e2e3 70bd
00000090: e76d 3a3d 23f5 39bd 474d 4a3d 1473 2d3c
000000a0: 0336 903c 4e05 043c bd4e 8c3c c408 5abd
000000b0: a4b2 0b3c 92d6 ca3d 002f 3abd 81e5 de3c
000000c0: 44a4 7abd 9c7d 053d d982 8bbc 3cdb 0a3c
000000d0: d8d5 233c e137 18bd 48d7 c4bc dd9c fcbc
000000e0: 12a4 a1bd e6d0 a13c 71bf 913c a0ac a6bd
000000f0: b28b e83c c02c d3bd f663 8ebc 0114 4ebd
00000100: f4df dabd 7243 dd3c c818 3b3c 930f 533c
00000110: 35af 423d 3c6d 4c3d f036 a0bd c479 07bc
00000120: 8c93 4c3b 2e67 17bd f2f1 58bd 422b e4bb
00000130: 9555 03bd 8843 9a3c 621b 33bd 263c 1ebb
00000140: c05b 4c3d 3906 6bbd fc0d 033c 4e6d 1cbd
00000150: c2d3 1abd 7f9a 64ba 63cb cbbd 4e93 8b3c
00000160: 8f2f 643d f3ef 04bb b828 c13b 8450 d5bc
00000170: 95f0 dd3c b3e2 e6ba 121a b1bc 44e1 de3b
00000180: 06d9 9dbd dad2 903c bfda 91bd cb1c 95bd
00000190: 0131 18bc 1da5 cd3d c20c 03bc 6d0d 3ebd
000001a0: 66b2 49bc 080a 10bd a765 2abc 0fe7 1abd
000001b0: 170a a4bb ddb5 1abd f8c6 de3c c24a 5ebd
000001c0: 0ec5 6cbc c8e9 18bd 3202 7abc 9efc 83bd
000001d0: 2b16 c139 54bb 49bd a9a0 053d 1292 26bd
000001e0: 9c91 d93c 8b2b 0cbd c5a0 95bd d0de d03b
000001f0: af75 eebc 7445 ba3c 4cf4 6bbd 1848 6abc

net.2.running_mean f4 [128]
0.22020873 0.56876373 0.11558356 0.10592193 0.06579217 0.2340327 0.63746554 0.11558328
0.22080192 0.058693297 0.016330807 0.041951016 0.10144817 0.060704537 0.11701298 0.60176337
0.11268121 0.58354855 0.4181365 0.3543801 0.08892695 0.1045369 0.10632037 0.5304091
0.17225522 0.16496438 0.09809394 0.05995205 0.28661886 0.07401968 0.33485377 0.5228116
0.60588735 0.4593876 0.17190789 0.24709022 0.39269772 0.008467608 0.4667208 0.48128742
0.30196828 0.48296064 0.27546203 0.23349792 0.4919592 6e-45 0.24062991 0.2684708
0.27106622 0.38354233 0.5668066 0.18622862 0.18181561 0.24052034 0.29893467 0.109347306
0.25247532 0.07887727 0.13424549 0.36128038 0.1510099 0.18892406 0.44155303 0.0021100629
0.012319787 0.6870711 0.5336836 0.25979444 0.41378695 0.38349554 0.23585892 0.018478481
0.33159935 0.2347558 0.10461531 0.40772322 0.2056264 0.36753064 0.021526443 0.40315706
0.3184896 0.29995084 0.32457244 0.048455503 0.112663426 0.11418418 0.0034001733 0.083321996
0.3659199 0.49942717 0.36987618 0.35770413 0.36431643 0.19510402 0.0210907 0.35193256
0.54850364 0.37970197 0.056024995 0.24417306 0.07140441 0.27715823 0.21291897 0.106027275
0.6838674 0.09687746 0.63796324 0.22712827 0.48861253 0.14890939 0.13205114 0.0058739204
0.12184652 0.20088635 0.048094247 0.1727003 0.1902307 0.536383 0.54534227 0.076865606
0.027543804 0.37730098 0.2483177 0.35169065 0.16728814 0.3108221 0.2244598 0.08688831
00000000: 667e 613e 809a 113f 13b7 ec3d 99ed d83d
00000010: 0cbe 863d 45a6 6f3e f130 233f edb6 ec3d
00000020: e619 623e 6268 703d 2fc8 853c d4d4 2b3d
00000030: 0fc4 cf3d 52a5 783d 80a4 ef3d 2a0d 1a3f
00000040: 68c5 e63d 7063 153f fd15 d63e 4f71 b53e
00000050: 551f b63d 7117 d63d 7fbe d93d e4c8 073f
00000060: ac63 303e 6cec 283e 7ae5 c83d 4890 753d
00000070: b5bf 923e a197 973d f471 ab3e fbd6 053f
00000080: 6f1b 1b3f da34 eb3e 9f08 303e 3805 7d3e
00000090: ad0f c93e b9bb 0a3c 07f6 ee3e 4e6b f63e
000000a0: 969b 9a3e 9e46 f73e 5c09 8d3e 141a 6f3e
000000b0: 14e2 fb3e 0400 0000 b067 763e 0175 893e
000000c0: 31c9 8a3e a95f c43e 3d1a 113f b7b2 3e3e
000000d0: df2d 3a3e f74a 763e f70d 993e 7bf1 df3d
000000e0: 7244 813e 688a a13d a677 093e bef9 b83e
000000f0: 57a2 1a3e 4f75 413e 3d13 e23e fb48 0a3b
00000100: efd8 493c e4e3 2f3f 7d9f 083f c703 853e
00000110: e2db d33e 8759 c43e 0085 713e 2f60 973c
00000120: 64c7 a93e d363 703e 8d40 d63d 19c1 d03e
00000130: ba8f 523e fa2c bc3e 3958 b03c 9a6a ce3e
00000140: 1211 a33e 2893 993e 5c2e a63e 4779 463d
00000150: 15bc e63d 65d9 e93d 71d5 5e3b b9a4 aa3d
00000160: da59 bb3e ebb4 ff3e 6960 bd3e ff24 b73e
00000170: af87 ba3e 59c9 473e 67c6 ac3c 8130 b43e
00000180: bc6a 0c3f 4c68 c23e 777a 653d 8108 7a3e
00000190: 7a3c 923d afe7 8d3e 6e07 5a3e d424 d93d
000001a0: ef11 2f3f b167 c63d 8f51 233f 5094 683e
000001b0: 6c2b fa3e b47b 183e 6a38 073e 047a c03b
000001c0: ab8a f93d 27b5 4d3e 79fe 443d 59d8 303e
000001d0: d6cb 423e 6550 093f 8d9b 0b3f b76b 9d3d
000001e0: 8ba3 e13c 982d c13e ff46 7e3e cc10 b43e
000001f0: 954d 2b3e 1324 9f3e cad8 653e 80f2 b13d

net.2.running_var f4 [128]
0.08162288 0.3319427 0.06488791 0.048006885 0.023976237 0.093612656 0.28319654 0.039296363
0.09294647 0.017528798 0.0033063611 0.012666475 0.03837116 0.018080225 0.064208195 0.44594252
0.05268583 0.17093512 0.27984655 0.14235307 0.019109394 0.05134801 0.04806352 0.057061248
0.100540414 0.051978722 0.03687268 0.014340359 0.12273711 0.022992164 0.23796426 0.27823853
0.3253393 0.28275278 0.047250956 0.08067613 0.2164283 0.0016017385 0.06778589 0.27497196
0.11499103 0.14545083 0.1102066 0.16110255 0.2794106 6e-45 0.14084683 0.072575636
0.15833364 0.1805436 0.27866408 0.08495794 0.08561587 0.11045074 0.06045258 0.037716288
0.09954408 0.034049425 0.06355406 0.1338778 0.05132254 0.07872671 0.2701152 0.00017501648
0.0011392882 0.22651194 0.2345568 0.1640357 0.20732665 0.063897945 0.09883715 0.0033087446
0.076113 0.15219367 0.037530784 0.2549052 0.0610588 0.1492043 0.0051738448 0.22205853
0.21699792 0.12623994 0.14328988 0.014155129 0.04555402 0.050270803 0.00011858533 0.035229333
0.2492433 0.31944126 0.029317753 0.22367243 0.1516367 0.12651402 0.004989776 0.16467386
0.08033735 0.16571806 0.0144369155 0.14983882 0.013803248 0.19944352 0.11964827 0.014760205
0.41463825 0.058297448 0.2181068 0.1380621 0.21020986 0.095248364 0.06554462 0.00045115987
0.06409415 0.10168543 0.010939688 0.057872117 0.11266626 0.22716518 0.053927016 0.018186437
0.005325662 0.17984189 0.0944254 0.1347344 0.050662342 0.1639845 0.070722006 0.024575384
00000000: e629 a73d 65f4 a93e f4e3 843d dea2 443d
00000010: d069 c43c feb7 bf3d 23ff 903e 39f5 203d
00000020: b85a be3d 8e98 8f3c 89af 583b 0c87 4f3c
00000030: 142b 1d3d fb1c 943c 967f 833d 9452 e43e
00000040: 19cd 573d 9e09 2f3e 0c48 8f3e 01c5 113e
00000050: 4e8b 9c3c 4a52 523d 41de 443d 0eb9 693d
00000060: 22e8 cd3d a4e7 543d cf07 173d d3f3 6a3c
00000070: 985d fb3d 105a bc3c e7ac 733e 4875 8e3e
00000080: df92 a63e f9c4 903e 388a 413d 8739 a53d
00000090: 619f 5d3e 6df1 d13a 54d3 8a3d 20c9 8c3e
000000a0: 6b80 eb3d 10f1 143e ffb3 e13d 11f8 243e
000000b0: e80e 8f3e 0400 0000 273a 103e 89a2 943d
000000c0: 3722 223e 6ce0 383e 0fad 8e3e 6efe ad3d
000000d0: 6057 af3d ff33 e23d 209d 773d 657c 1a3d
000000e0: c4dd cb3d 6977 0b3d a228 823d 4317 093e
000000f0: 9537 523d 783b a13d 8a4c 8a3e a184 3739
00000100: 2b54 953a bff2 673e a82f 703e f9f8 273e
00000110: 704d 543e eddc 823d 226b ca3d 86d7 583b
00000120: 22e1 9b3d a8d8 1b3e e1b9 193d ef82 823e
00000130: cb18 7a3d 03c9 183e 5b89 a93b 5063 633e
00000140: b434 5e3e 0b45 013e 95ba 123e eaea 673c
00000150: da96 3a3d c2e8 4d3d 04b1 f838 a24c 103d
00000160: a339 7f3e ce8d a33e c92b f03c 630a 653e
00000170: a746 1b3e e48c 013e 4681 a33b 44a0 283e
00000180: e987 a43d ffb1 293e d088 6c3c 596f 193e
00000190: 0527 623c ec3a 4c3e 270a f53d c9d4 713c
000001a0: 774b d43e 4ec9 6e3d 6457 5f3e 2760 0d3e
000001b0: 4141 573e 9311 c33d 423c 863d a789 ec39
000001c0: cb43 833d 7340 d03d 613c 333c 500b 6d3d
000001d0: 91bd e63d fd9d 683e 93e2 5c3d b9fb 943c
000001e0: e482 ae3b 7928 383e 1b62 c13d d1f7 093e
000001f0: 5183 4f3d 8eeb 273e b3d6 903d 5152 c93c

net.4.weight f4 [64, 128]
-0.0785778 -0.05357949 -0.036561582 0.038524523 -0.032394964 -0.028701961 0.066117845 0.08873136
0.060068384 -0.06464113 -0.024751298 -0.11132016 -0.04206041 -0.048054278 0.039832395 0.058621228
-0.06112088 -0.042251978 -0.06732773 0.0046116444 -0.03360632 -0.009558192 -0.13429013 -0.06274493
0.046025287 -0.05954256 -0.07428907 0.06259616 -0.08695193 0.04330918 -0.021514164 0.083920546
-0.05250709 -0.020864647 0.077314645 -0.05910437 -0.08857817 0.0038171054 -0.033543423 -0.09800551
0.09127339 0.04365518 -0.059609875 -0.06640459 -0.043009907 0.044947736 -0.07109612 0.032189313
-0.034648996 -0.021775426 -0.042880982 -0.02058725 0.015931273 -0.03666483 -0.03030961 -0.06425278
-0.048200507 -0.044927675 -0.034930572 -0.014455663 -0.0066484734 -0.0225677 -0.073840946 -0.08332614
-0.088057876 -0.025332434 -0.069499426 -0.021810146 -0.012265195 0.019370912 0.067737974 0.018749658
-0.091604516 0.007076094 0.035849117 -0.046032313 0.04745599 -0.08605825 -0.092993036 0.006100332
0.0005433621 0.017296521 -0.06628022 -0.047943454 0.0015010263 0.05260138 -0.0720389 -0.045992736
-0.06557671 0.0018077283 -0.060128648 -0.07129053 -0.10528341 0.035126194 0.029654952 0.019497909
0.009073611 -0.0376763 -0.07900645 -0.024480045 -0.029312763 -0.07679269 -0.089548476 -0.0057425248
-0.052411947 -0.061862294 0.06416979 -0.12143427 -0.05493531 -0.077456765 0.051480565 -0.06916111
-0.057592507 0.03337151 -0.004666228 0.023717076 -0.053449076 -0.0015557181 0.00033415962 -0.029360315
0.009604622 0.007660722 0.029253477 -0.025322324 -0.00045546144 0.0357583 -0.03140245 -0.05303678
0.05409421 0.0552603 -0.033330623 0.04441522 0.06952097 0.07632859 0.039377097 -0.058719266
0.025699351 0.01554212 0.0108940555 -0.009273557 -0.06186447 -0.008171851 -0.032047648 -0.017259236
-0.0014891105 -0.050724924 -0.021137174 0.04077314 -0.008035689 0.0019588089 -0.016537672 -0.055633385
-0.040929966 -0.01691824 0.01725791 0.036190994 -0.024767155 0.12343768 -0.04354463 -0.060813416
0.020307045 -0.021772247 -0.013608179 0.06304907 -0.046439126 -0.021642556 -0.032485392 0.04910186
0.02779254 -0.0390901 0.05446074 0.0023027747 -0.07234007 -0.12909731 0.008325229 0.05584676
-0.04432553 0.0033703707 0.0043450384 0.014422804 -0.022117468 0.09558209 -0.005779318 -0.038744137
-0.0147682065 0.041751396 -0.054525476 0.090211056 0.034011517 0.05242396 -0.068699874 0.032102607
0.1027594 0.035754994 -0.008934428 0.017900094 0.022704536 0.03965249 0.006126259 0.030209867
-0.073304765 0.09606988 0.08049347 0.07944582 -0.06724132 0.07925108 0.008061429 -0.027700623
-0.0061871298 0.044787284 -0.001219972 -0.041262615 0.07490715 0.04518105 0.038184278 0.023448626
-0.04918819 -0.06321523 -0.061857007 0.009097303 -0.07713074 0.072766654 0.036337283 0.089588724
0.08256003 0.05207208 0.14419533 0.035916544 0.037037373 -0.057149645 -0.016921088 0.07858936
0.083436415 0.036923222 -0.093101986 0.0034780987 0.063882984 -0.027982341 -0.041954715 0.05442703
-0.032442927 0.0656624 -0.016019454 0.07681112 0.003814524 -0.009402847 -0.053714175 0.052597698
0.051722184 0.035171017 0.11289288 0.044989217 0.081945896 -0.021421008 0.07875749 0.051891375
00000000: 66ed a0bd 2b76 5bbd 99c1 15bd e4cb 1d3d
00000010: 95b0 04bd 6020 ebbc cb68 873d cab8 b53d
00000020: 440a 763d 9262 84bd 3cc3 cabc d3fb e3bd
00000030: 8947 2cbd 90d4 44bd 4b27 233d d01c 703d
00000040: e359 7abd 6910 2dbd 1fe3 89bd 471d 973b
00000050: c8a6 09bd f799 1cbc 5a83 09be 6a80 80bd
00000060: 0385 3c3d e6e2 73bd de24 98bd 6a32 803d
00000070: da13 b2bd f764 313d 793e b0bc 89de ab3d
00000080: ad11 57bd 56ec aabc 2457 9e3d 6d17 72bd
00000090: 7968 b5bd 6728 7a3b d464 09bd 1db7 c8bd
000000a0: 8bed ba3d c6cf 323d 7c29 74bd 21ff 87bd
000000b0: 282b 30bd 1e1b 383d d89a 91bd f1d8 033d
000000c0: 1bec 0dbd 6162 b2bc f8a3 2fbd 98a6 a8bc
000000d0: 4d82 823c dc2d 16bd dc4b f8bc f696 83bd
000000e0: e56d 45bd 1506 38bd 5c13 0fbd 72d7 6cbc
000000f0: 70db d9bb e6df b8bc ec39 97bd e5a6 aabd
00000100: b057 b4bd f785 cfbc b755 8ebd 31ab b2bc
00000110: f5f3 48bc bfaf 9e3c 35ba 8a3d e298 993c
00000120: 269b bbbd 94de e73b 86d6 123d 618c 3cbd
00000130: 3661 423d 4f3f b0bd 2273 bebd 4be5 c73b
00000140: 6a70 0e3a 6fb1 8d3c edbd 87bd 5b60 44bd
00000150: 16be c43a 8b74 573d 2189 93bd e162 3cbd
00000160: 154d 86bd 4cf1 ec3a 7549 76bd c500 92bd
00000170: d49e d7bd 7ce0 0f3d f1ee f23c 14ba 9f3c
00000180: 7ca9 143c 7752 1abd 22ce a1bd 608a c8bc
00000190: 5221 f0bc 7c45 9dbd 3165 b7bd ca2b bcbb
000001a0: e9ad 56bd 5163 7dbd 736b 833d 88b2 f8bd
000001b0: d903 61bd a7a1 9ebd 49dd 523d 57a4 8dbd
000001c0: 1fe6 6bbd 91b0 083d 28e7 98bb 504a c23c
000001d0: 6bed 5abd 3de9 cbba 2532 af39 0b85 f0bc
000001e0: b45c 1d3c cb06 fb3b fda4 ef3c c370 cfbc
000001f0: 00cb eeb9 4c77 123d db9f 00bd 183d 59bd
00000200: e491 5d3d a058 623d b185 08bd bcec 353d
00000210: 0361 8e3d 2a52 9c3d e149 213d 9d83 70bd
00000220: 7287 d23c 60a4 7e3c fb7c 323c 1ef0 17bc
00000230: 9965 7dbd 3ae3 05bc 6544 03bd 3e63 8dbc
00000240: 422e c3ba f0c4 4fbd de27 adbc bc01 273d
00000250: 1fa8 03bc 5c5f 003b 037a 87bc d5df 63bd
00000260: 2ea6 27bd 1f98 8abc 7660 8d3c 023d 143d
00000270: 7de4 cabc e5cc fc3d db5b 32bd 7d17 79bd
00000280: f65a a63c b65b b2bc d7f4 5ebc df1f 813d
00000290: f436 3ebd bb4b b1bc 670f 05bd 081f 493d
000002a0: 2ead e33c f11c 20bd 3a12 5f3d 26ea 163b
000002b0: 0827 94bd 1632 04be 8b66 083c 92bf 643d
000002c0: b08e 35bd 70e1 5c3b d360 8e3b a04d 6c3c
000002d0: b12f b5bc 8bc0 c33d 6f60 bdbb 2cb2 1ebd
000002e0: 59f6 71bc 8303 2b3d 1b56 5fbd 93c0 b83d
000002f0: a94f 0b3d 82ba 563d 85b2 8cbd 067e 033d
00000300: 8573 d23d d473 123d b561 12bc 38a3 923c
00000310: ddfe b93c a66a 223d c9be c83b af7a f73c
00000320: cf20 96bd 49c0 c43d c3d9 a43d 7db4 a23d
00000330: d1b5 89bd 644e a23d 1514 043c 6bec e2bc
00000340: 68bd cabb df72 373d 78e7 9fba fd02 29bd
00000350: eb68 993d c40f 393d 1e67 1c3d 5517 c03c
00000360: 8e79 49bd fd76 81bd c65d 7dbd db0c 153c
00000370: b9f6 9dbd af06 953d 67d6 143d 4b7a b73d
00000380: 3c15 a93d 8949 553d f1a7 133e 3a1d 133d
00000390: 80b4 173d bf15 6abd 189e 8abc 75f3 a03d
000003a0: b6e0 aa3d ce3c 173d 41ac bebd d0f0 633b
000003b0: 15d5 823d 393b e5bc b5d8 2bbd e1ee 5e3d
000003c0: e0e2 04bd 027a 863d 3b3b 83bc 264f 9d3d
000003d0: 18fd 793b 660e 1abc 6503 5cbd af70 573d
000003e0: a4da 533d 7c0f 103d 6234 e73d 9d46 383d
000003f0: 40d3 a73d 1c7b afbc 9b4b a13d 0d8c 543d

net.4.bias f4 [64]
0.013325332 -0.05000438 0.062943175 0.05867169 0.08501656 0.035530437 0.047667895 0.017884392
0.005497421 -0.04355929 0.09535195 -0.0899726 -0.015803777 0.07592676 -0.05191441 0.02553992
0.06494818 0.06694788 0.07878506 0.011799088 0.08923969 -0.027753552 -0.026286611 0.043007184
0.037363138 -0.060255736 0.08904692 0.091864266 0.004168984 0.16697732 -0.021691212 0.08813626
-0.059653025 -0.021916652 0.09233025 -0.053529665 0.009719209 -0.0016886889 -0.057868365 0.12059897
0.11444761 0.047765005 0.026766762 -0.031740393 0.08826162 -0.042475045 0.03301301 0.016884334
0.05660493 0.12181182 0.04749392 0.03526089 0.012539374 -0.06361483 0.13266893 -0.08541525
0.026693454 0.046412926 0.04155894 -0.046353374 -0.06525391 -0.023800408 0.1300733 0.01380265
00000000: 7e52 5a3c 65d1 4cbd 5ae8 803d ba51 703d
00000010: 2a1d ae3d 5d88 113d 693f 433d 4a82 923c
00000020: b623 b43b 3a6b 32bd e247 c33d 8e43 b8bd
00000030: ec76 81bc 7d7f 9b3d 34a4 54bd 1839 d13c
00000040: 8d03 853d f81b 893d 105a a13d f650 413c
00000050: 4cc3 b63d 6b5b e3bc 0557 d7bc 4d28 303d
00000060: 170a 193d b8ce 76bd 3b5e b63d 5523 bc3d
00000070: f99b 883b 1afc 2a3e c5b1 b1bc c980 b43d
00000080: bb56 74bd 8d8a b3bc a417 bd3d ec41 5bbd
00000090: 513d 1f3c ff56 ddba 6107 6dbd 98fc f63d
000000a0: 8263 ea3d 3da5 433d f845 db3c 3702 02bd
000000b0: 82c2 b43d 50fa 2dbd a638 073d 0451 8a3c
000000c0: 92da 673d 7a78 f93d fc88 423d b96d 103d
000000d0: f271 4d3c 7e48 82bd 5dda 073e 31ee aebd
000000e0: 3bac da3c 7b1b 3e3d b539 2a3d 09dd 3dbd
000000f0: d8a3 85bd 13f9 c2bc ef31 053e 8324 623c

net.6.weight f4 [64]
1.0161302 1.0274218 1.0086813 1.0327934 1.0313483 1.0393292 1.0173521 1.014664
1.0224092 1.0278614 1.0000488 0.9941487 1.0192126 1.0251904 1.0268939 1.0520961
1.0150046 1.0174142 1.0264531 1.0289341 1.038253 1.039257 1.0262264 0.9998703
1.028155 1.0273204 1.0507696 1.0399295 1.0128921 1.0095685 1.0095438 1.0226746
1.019676 1.0246402 1.032271 1.0298426 1.0291994 1.0273383 0.9924984 1.0171409
1.0390066 1.0479457 1.0031166 1.0194496 1.0240867 1.0339805 1.0137744 1.0091155
1.0039313 1.0187298 1.017091 1.030505 1.0303732 1.0170075 1.0207828 0.98902225
1.0411595 1.0340575 1.0216409 1.0311065 1.0381103 1.01924 1.0193247 1.0366755
00000000: 8e10 823f 8f82 833f 781c 813f 9332 843f
00000010: 3903 843f bd08 853f 9838 823f 83e0 813f
00000020: 4ede 823f f690 833f 9901 803f 8780 7e3f
00000030: 8f75 823f 7039 833f 4271 833f 16ab 863f
00000040: aceb 813f a13a 823f d162 833f 1db4 833f
00000050: 79e5 843f 6006 853f 635b 833f 80f7 7f3f
00000060: 959a 833f 3c7f 833f 9e7f 863f 691c 853f
00000070: 73a6 813f 8a39 813f bb38 813f 00e7 823f
00000080: be84 823f 6927 833f 7521 843f e2d1 833f
00000090: cebc 833f d27f 833f 6014 7e3f ac31 823f
000000a0: 2bfe 843f 1623 863f 2066 803f 537d 823f
000000b0: 4615 833f 7959 843f 5cc3 813f b22a 813f
000000c0: d280 803f bd65 823f 0a30 823f 96e7 833f
000000d0: 45e3 833f 4d2d 823f 03a9 823f 9030 7d3f
000000e0: b744 853f ff5b 843f 21c5 823f 4cfb 833f
000000f0: cce0 843f 7576 823f 3b79 823f c8b1 843f

net.6.bias f4 [64]
0.032939423 -0.055511195 0.021920484 -0.046487793 -0.04230651 -0.058823075 0.041721225 0.047062635
-0.04491846 0.021841325 0.030741878 -0.03597724 -0.057862837 0.03528462 -0.068671 -0.059752062
-0.048679616 -0.049072515 -0.03496155 -0.051280383 -0.041490734 -0.0030763648 -0.032208513 0.011160709
-0.049467806 -0.021606294 -0.06385195 -0.048391983 0.042939246 0.026611172 -0.046610445 0.041774653
-0.050853558 -0.04431953 0.032970272 -0.044467855 0.034824554 -0.040983524 -0.05311466 0.022312397
0.0652738 0.040862672 0.012025567 -0.048535302 -0.035346437 -0.04752392 -0.02669263 -0.03640236
0.03540058 0.046744376 -0.057222687 -0.021839082 -0.02987335 -0.0384157 0.022190357 -0.03386123
0.06877233 0.046292517 0.03155543 -0.0074637206 -0.0557698 -0.034831885 0.036922786 -0.051987242
00000000: 7deb 063d b55f 63bd 9692 b33c fc69 3ebd
00000010: 9749 2dbd 77f0 70bd e0e3 2a3d c0c4 403d
00000020: 6bfc 37bd 94ec b23c 64d6 fb3c df5c 13bd
00000030: 9501 6dbd 9b86 103d 62a3 8cbd 94be 74bd
00000040: 4764 47bd 4300 49bd d833 0fbd 610b 52bd
00000050: 30f2 29bd d69c 49bb 13ed 03bd 68db 363c
00000060: c19e 4abd afff b0bc d0c4 82bd ac36 46bd
00000070: 10e1 2f3d acff d93c 98ea 3ebd e61b 2b3d
00000080: d24b 50bd 6588 35bd d60b 073d ed23 36bd
00000090: 31a4 0e3d 57de 27bd c28e 59bd 7dc8 b63c
000000a0: 45ae 853d 9e5f 273d e206 453c f4cc 46bd
000000b0: 6dc7 10bd 71a8 42bd 81aa dabc a41a 15bd
000000c0: 3300 113d 0877 3f3d 5662 6abd e0e7 b2bc
000000d0: f5b8 f4bc c859 1dbd 8dc8 b53c 13b2 0abd
000000e0: 82d8 8c3d 399d 3d3d 4440 013d 3a92 f4bb
000000f0: e06e 64bd e1ab 0ebd 593c 173d 93f0 54bd

net.6.running_mean f4 [64]
0.5949696 0.31920755 0.53216016 0.49222115 0.33296528 0.5757661 0.5523787 0.591275
0.5294468 0.61087626 0.5907984 0.33890322 0.39452222 0.48341265 0.34454522 0.49690756
0.34904224 0.51626 0.5810467 0.5416219 0.61029905 0.5315532 0.3466156 0.46893114
0.40416774 0.514127 0.6327891 0.64258724 0.62749946 0.6414778 0.445569 0.66091484
0.47437674 0.61249924 0.633497 0.5276374 0.5009625 0.5231421 0.2764668 0.43825656
0.75841117 0.6129217 0.4950051 0.40167162 0.39411277 0.50562257 0.38389054 0.44219616
0.38198796 0.7507753 0.5340139 0.64800644 0.6706916 0.46742377 0.5439864 0.30799222
0.6410102 0.72081023 0.6210752 0.28697726 0.39661524 0.37589282 0.5349827 0.4616805
00000000: ed4f 183f 2c6f a33e a63b 083f 6904 fc3e
00000010: 6d7a aa3e 6865 133f b168 0d3f cc5d 173f
00000020: d389 073f 6362 1c3f 903e 173f b984 ad3e
00000030: d1fe c93e dd81 f73e 3b68 b03e ab6a fe3e
00000040: aab5 b23e 9e29 043f 7abf 143f bca7 0a3f
00000050: 8f3c 1c3f df13 083f 9a77 b13e be17 f03e
00000060: 13ef ce3e d49d 033f 77fe 213f 9980 243f
00000070: cea3 203f e437 243f 9f21 e43e b731 293f
00000080: 82e1 f23e c0cc 1c3f dc2c 223f 3f13 073f
00000090: 143f 003f a4ec 053f 0e8d 8d3e 2a63 e03e
000000a0: 3c27 423f 70e8 1c3f 4f71 fd3e e7a7 cd3e
000000b0: 26c9 c93e 7b70 013f 4d8d c43e 8967 e23e
000000c0: ed93 c33e cf32 403f 23b5 083f c0e3 253f
000000d0: 72b2 2b3f 2b52 ef3e b142 0b3f 28b1 9d3e
000000e0: 3f19 243f 0587 383f c9fe 1e3f afee 923e
000000f0: 2711 cb3e 0675 c03e a0f4 083f 6361 ec3e

net.6.running_var f4 [64]
0.49474052 0.34478644 0.66278887 0.5370298 0.336457 0.97271585 0.51967096 0.43569624
0.7059883 0.81843084 0.5810918 0.33256555 0.50918025 0.44031355 0.38498938 0.5489486
0.23940034 0.56550175 0.7269496 0.883434 0.71197766 0.6948784 0.22060715 0.36101535
0.4810358 0.4161314 0.8484353 0.7205552 0.45981368 0.4326621 0.6142681 0.6164014
0.5107095 0.97787195 0.45319054 0.767985 0.44788653 0.6662149 0.26939192 0.28661746
0.71856123 0.586775 0.46320897 0.46778643 0.24677463 0.568897 0.37400806 0.39786673
0.3583646 0.63472754 0.5451585 0.7648782 0.7580697 0.760035 0.46955484 0.25552225
0.7008901 0.49806234 0.72974384 0.15890309 0.60244083 0.46433422 0.3151164 0.7146628
00000000: a14e fd3e d987 b03e 88ac 293f c97a 093f
00000010: 1844 ac3e e803 793f 2809 053f 9413 df3e
00000020: a6bb 343f af84 513f 6fc2 143f 0846 aa3e
00000030: a359 023f c770 e13e 541d c53e e587 0c3f
00000040: 5d25 753e b9c4 103f 5e19 3a3f bb28 623f
00000050: 2b44 363f 8de3 313f d7e6 613e 01d7 b83e
00000060: 534a f63e 2d0f d53e 0e33 593f 4e76 383f
00000070: b36c eb3e e385 dd3e ad40 1d3f 7bcc 1d3f
00000080: dcbd 023f d155 7a3f 9708 e83e aa9a 443f
00000090: 6251 e53e 0f8d 2a3f bded 893e 86bf 923e
000000a0: a1f3 373f e336 163f ba29 ed3e b481 ef3e
000000b0: 7db2 7c3e 3ca3 113f fc7d bf3e 30b5 cb3e
000000c0: 917b b73e 817d 223f 828f 0b3f 0fcf 433f
000000d0: db10 423f a791 423f 7e69 f03e d0d3 823e
000000e0: 896d 333f 0702 ff3e 7ed0 3a3f 7eb7 223e
000000f0: 9039 1a3f 37bd ed3e f056 a13e 24f4 363f

net.8.weight f4 [32, 64]
0.028854698 -0.021849396 0.076867275 -0.056401104 0.06147275 0.05981939 -0.037935354 -0.02803045
0.029937511 -0.042437594 0.043958325 -0.096195124 0.030535823 -0.046126805 0.03761924 0.11453915
0.044618506 0.088986844 0.04857704 0.09203496 -0.09207353 0.07037525 -0.029942542 -0.08329988
0.01427606 0.01739507 -0.06633468 -0.07126467 0.09945888 -0.042547613 0.0025148215 0.021556688
-0.013443205 -0.058202326 -0.05435951 0.030972209 0.06548561 -0.03491235 -0.061739363 0.10015671
0.06622305 -0.063028656 -0.0029469177 0.07595234 -0.06019327 -0.008338756 0.042267397 0.048636403
-0.07065286 0.06959827 0.08916382 0.01829353 -0.054902706 -0.0044463403 -0.09190001 0.03072726
-0.048781957 -0.02094537 -0.037640426 0.05393311 -0.006736672 -0.09970729 -0.1280481 -0.043075167
-0.023084234 -0.059437543 -0.11119746 -0.038523026 -0.12820935 -0.06154002 0.013055976 -0.06436503
-0.03494869 -0.06429816 0.016611306 -0.027361229 -0.041916102 -0.097977586 0.07393571 -0.07927713
-0.041751683 -0.06963287 -0.15028095 -0.11575791 -0.05990973 0.00031053214 0.042086203 -0.077101626
-0.0604393 6.442297e-05 0.05841035 -0.07622059 0.121906266 -0.0049750702 -0.015088433 0.029269284
-0.12549129 -0.15613823 0.041160375 -0.072103776 0.041660704 -0.11546833 0.010210827 0.109377526
-0.041528203 0.08597678 -0.104998164 -0.13302745 -0.12771706 -0.0689573 -0.03693406 -0.12280246
0.0017146022 0.09898235 -0.013315206 -0.1273113 -0.046550117 -0.14179465 0.053706523 -0.034812074
-0.0348904 0.025063202 -0.0018791733 -0.01819503 -0.078865394 -0.0054662703 0.01439843 0.007663347
-0.091375634 0.0129947765 0.059883405 -0.0445401 0.12544797 -0.13787404 0.025124902 -0.08186802
-0.074873306 0.009386323 0.06224522 -0.028082754 0.020951588 0.111712605 0.077355094 0.07417206
-0.118764065 0.010523299 0.03948116 -0.06482023 -0.12299381 0.0021841996 -0.14140786 0.09223331
-0.1204279 -0.010326374 0.014068101 -0.16564086 -0.049654253 -0.12492727 -0.116537966 -0.090052806
-0.12249176 -0.04548205 -0.03961695 -0.087552115 0.07567106 0.08851602 -0.019951452 0.080065176
-0.16289745 -0.07927179 0.09119801 -0.01466857 -0.10287492 -0.12116043 -0.052316327 -0.023264294
0.09345308 -0.008821663 0.039288204 0.14983128 -0.10561984 0.010754405 -0.11862211 0.06521958
0.019951545 0.078942455 0.080899544 -0.110673495 -0.08785946 0.05334429 -0.13597038 -0.087237015
0.025487004 0.0008999333 -0.06097808 -0.04794756 0.15113033 -0.07657124 -0.084303245 0.15190695
0.111756414 0.089186095 -0.0053104083 0.1107987 -0.0021456485 0.004753618 -0.15007637 -0.018396303
0.12755986 0.02558746 -0.10016475 -0.050940238 -0.084513076 -0.14694962 0.06701358 0.024926404
-0.14911698 -0.022017388 -0.013290861 0.010213255 -0.0846891 -0.10530063 -0.07461933 -0.03218189
-0.078141786 0.041951537 0.13040772 -0.012132612 -0.027633503 -0.09616808 0.0156853 0.09023783
0.11029299 0.029807003 -0.12464916 0.025811777 -0.14961082 0.041915983 -0.12311751 0.031584397
-0.08525715 0.14982304 -0.0722418 0.034110606 0.0014235915 -0.1518649 0.09817269 0.051292516
-0.0038947607 0.12714602 0.05995306 0.017656844 0.03854965 -0.11005364 -0.13157591 0.032609377
00000000: b060 ec3c 81fd b2bc 976c 9d3d d804 67bd
00000010: daca 7b3d 2d05 753d 1a62 1bbd 1da0 e5bc
00000020: 833f f53c 0bd3 2dbd a50d 343d f301 c5bd
00000030: 4326 fa3c 76ef 3cbd a216 1a3d 8093 ea3d
00000040: e5c1 363d bc3e b63d b8f8 463d d37c bc3d
00000050: 0c91 bcbd e620 903d 104a f5bc 2199 aabd
00000060: 23e6 693c 1b80 8e3c 7ada 87bd 36f3 91bd
00000070: 19b1 cb3d 6846 2ebd b4cf 243b a797 b03c
00000080: e340 5cbc 9065 6ebd 14a8 5ebd 6eb9 fd3c
00000090: 521d 863d 4100 0fbd 6ae2 7cbd f61e cd3d
000000a0: f39f 873d 2b15 81bd 1321 41bb e78c 9b3d
000000b0: 388d 76bd 479f 08bc 9420 2d3d f736 473d
000000c0: 72b2 90bd 8a89 8e3d 859b b63d 50dc 953c
000000d0: a9e1 60bd 9bb2 91bb 1336 bcbd bcb7 fb3c
000000e0: 97cf 47bd a095 abbc d92c 1abd f7e8 5c3d
000000f0: 4dbf dcbb 5633 ccbd 0b1f 03be 966f 30bd
00000100: 261b bdbc c874 73bd 7ebb e3bd 52ca 1dbd
00000110: 5049 03be 6311 7cbd bbe8 553c d0d1 83bd
00000120: 5c26 0fbd c1ae 83bd 6f14 883c a824 e0bc
00000130: 38b0 2bbd 79a8 c8bd 9b6b 973d 0c5c a2bd
00000140: d003 2bbd ae9b 8ebd 40e3 19be 7c12 edbd
00000150: e863 75bd ebce a239 9562 2c3d 75e7 9dbd
00000160: 338f 77bd d21a 8738 b13f 6f3d 8a19 9cbd
00000170: fea9 f93d ea05 a3bb 7a35 77bc 23c6 ef3c
00000180: ca80 00be b3e2 1fbe c897 283d 25ab 93bd
00000190: 6aa4 2a3d a97a ecbd 504b 273c 5301 e03d
000001a0: 7a19 2abd 9814 b03d 4709 d7bd 5938 08be
000001b0: 43c8 02be 7c39 8dbd 2b48 17bd db7f fbbd
000001c0: 81bc e03a 42b7 ca3d 0628 5abc e55d 02be
000001d0: 56ab 3ebd 9e32 11be 5ffb 5b3d 1b97 0ebd
000001e0: 3ce9 0ebd 5851 cd3c 984e f6ba be0d 95bc
000001f0: 2e84 a1bd 661e b3bb 64e7 6b3c d01c fb3b
00000200: 2623 bbbd 0be8 543c 4d48 753d ae6f 36bd
00000210: 6f75 003e da2e 0dbe bdd2 cd3c 6caa a7bd
00000220: 2d57 99bd 18c9 193c d8f4 7e3d ce0d e6bc
00000230: aaa2 ab3c 94c9 e43d 596c 9e3d 85e7 973d
00000240: 933a f3bd ea69 2c3c ffb6 213d 78c0 84bd
00000250: 2ee4 fbbd ca24 0f3b 39cd 10be d1e4 bc3d
00000260: e7a2 f6bd f42f 29bc e47d 663c c29d 29be
00000270: 4262 4bbd ded9 ffbd 75ab eebd 9b6d b8bd
00000280: f6dc fabd 634b 3abd 6245 22bd 864e b3bd
00000290: 6ef9 9a3d e347 b53d 3a71 a3bc 36f9 a33d
000002a0: 97ce 26be 4059 a2bd 06c6 ba3d 7154 70bc
000002b0: 16b0 d2bd f622 f8bd a549 56bd c394 bebc
000002c0: 5464 bf3d bd88 10bc abec 203d 5f6d 193e
000002d0: 374f d8bd 3e33 303c 26f0 f2bd d891 853d
000002e0: 6c71 a33c 95ac a13d a9ae a53d c9a8 e2bd
000002f0: a9ef b3bd 8b7f 5a3d d23b 0bbe 52a9 b2bd
00000300: 1fca d03c 80e9 6b3a 27c4 79bd a964 44bd
00000310: e9c1 1a3e 62d1 9cbd 2ea7 acbd 7f8d 1b3e
00000320: 8ce0 e43d 33a7 b63d ef02 aebb 6eea e23d
00000330: 029e 0cbb 3dc4 9b3b 9fad 19be d8b3 96bc
00000340: 0d9f 023e cb9c d13c 2d23 cdbd b6a6 50bd
00000350: 3115 adbd f679 16be 6a3e 893d 7532 cc3c
00000360: 1fb2 18be cf5d b4bc e9c1 59bc 7f55 273c
00000370: 7b71 adbd dba7 d7bd 05d2 98bd 28d1 03bd
00000380: cd08 a0bd 60d5 2b3d 9a89 053e ddc7 46bc
00000390: a85f e2bc c5f3 c4bd 757e 803c 9dce b83d
000003a0: 4be1 e13d d12d f43c 0f48 ffbd 3873 d33c
000003b0: 9433 19be 18b0 2b3d 0825 fcbd a45e 013d
000003c0: 4d9b aebd 366b 193e 82f3 93bd 90b7 0b3d
000003d0: ce97 ba3a 7982 1bbe c30e c93d 1a18 523d
000003e0: 3e3f 7fbb 9132 023e 5791 753d 16a5 903c
000003f0: 3de6 1d3d ce63 e1bd d6bb 06be 6991 053d

net.8.bias f4 [32]
-0.15304735 0.111155555 0.06684236 -0.014858715 -0.017484883 0.10006708 0.10729441 -0.028542563
-0.028387617 0.1576656 -0.030927643 0.048351843 0.046027977 -0.06764309 0.04104198 0.045337245
0.048171032 0.15949593 0.00092686573 0.15401469 -0.026328286 -0.010701645 -0.0139611205 0.009025603
0.026212173 0.018281974 0.034009304 0.08803083 -0.02024194 -0.10187559 -0.16015646 0.14159791
00000000: 72b8 1cbe 86a5 e33d a6e4 883d f871 73bc
00000010: 753c 8fbc f8ef cc3d 2cbd db3d 18d2 e9bc
00000020: 268d e8bc 1773 213e f85b fdbc 950c 463d
00000030: d587 3c3d 7688 8abd a31b 283d 8cb3 393d
00000040: fd4e 453d e752 233e e8f8 723a 07b6 1d3e
00000050: 6bae d7bc f455 2fbc 2fbd 64bc 1fe0 133c
00000060: e9ba d63c 14c4 953c 574d 0b3d 8249 b43d
00000070: 6dd2 a5bc 26a4 d0bd 0e00 24be 0bff 103e

net.10.weight f4 [1, 32]
-0.1114447 0.2058998 0.07444843 0.12169648 0.18650742 0.17874755 0.17564125 -0.10121301
-0.041462854 0.13830125 0.02521652 0.08421977 0.057929117 0.12306406 0.17746349 -0.009259106
0.00326499 0.0698715 0.12690543 0.15653372 0.0777369 -0.011184918 -0.026873395 0.056313522
0.18706863 -0.00027304888 -0.008204669 -0.10051309 -0.063322105 -0.06619264 -0.011836294 0.07210067
00000000: 1e3d e4bd 66d7 523e 6b78 983d 013c f93d
00000010: cdfb 3e3e 9909 373e 4ddb 333e c448 cfbd
00000020: f4d4 29bd d89e 0d3e e092 ce3c 6a7b ac3d
00000030: 1547 6d3d 0309 fc3d fdb8 353e 81b3 17bc
00000040: 71f9 553b ca18 8f3d 7ff3 013e 604a 203e
00000050: 8634 9f3d f240 37bc 9825 dcbc 02a9 663d
00000060: eb8e 3f3e 0028 8fb9 e06c 06bc cfd9 cdbd
00000070: 05af 81bd 0290 87bd 04ed 41bc 84a9 933d
